saved_model_schema_version: 1
meta_graphs {
  meta_info_def {
    stripped_op_list {
      op {
        name: "Add"
        input_arg {
          name: "x"
          type_attr: "T"
        }
        input_arg {
          name: "y"
          type_attr: "T"
        }
        output_arg {
          name: "z"
          type_attr: "T"
        }
        attr {
          name: "T"
          type: "type"
          allowed_values {
            list {
              type: DT_HALF
              type: DT_FLOAT
              type: DT_DOUBLE
              type: DT_UINT8
              type: DT_INT8
              type: DT_INT16
              type: DT_INT32
              type: DT_INT64
              type: DT_COMPLEX64
              type: DT_COMPLEX128
              type: DT_STRING
            }
          }
        }
      }
      op {
        name: "AddN"
        input_arg {
          name: "inputs"
          type_attr: "T"
          number_attr: "N"
        }
        output_arg {
          name: "sum"
          type_attr: "T"
        }
        attr {
          name: "N"
          type: "int"
          has_minimum: true
          minimum: 1
        }
        attr {
          name: "T"
          type: "type"
          allowed_values {
            list {
              type: DT_FLOAT
              type: DT_DOUBLE
              type: DT_INT64
              type: DT_INT32
              type: DT_UINT8
              type: DT_UINT16
              type: DT_INT16
              type: DT_INT8
              type: DT_COMPLEX64
              type: DT_COMPLEX128
              type: DT_QINT8
              type: DT_QUINT8
              type: DT_QINT32
              type: DT_HALF
            }
          }
        }
        is_aggregate: true
        is_commutative: true
      }
      op {
        name: "All"
        input_arg {
          name: "input"
          type: DT_BOOL
        }
        input_arg {
          name: "reduction_indices"
          type_attr: "Tidx"
        }
        output_arg {
          name: "output"
          type: DT_BOOL
        }
        attr {
          name: "keep_dims"
          type: "bool"
          default_value {
            b: false
          }
        }
        attr {
          name: "Tidx"
          type: "type"
          default_value {
            type: DT_INT32
          }
          allowed_values {
            list {
              type: DT_INT32
              type: DT_INT64
            }
          }
        }
      }
      op {
        name: "ApplyMomentum"
        input_arg {
          name: "var"
          type_attr: "T"
          is_ref: true
        }
        input_arg {
          name: "accum"
          type_attr: "T"
          is_ref: true
        }
        input_arg {
          name: "lr"
          type_attr: "T"
        }
        input_arg {
          name: "grad"
          type_attr: "T"
        }
        input_arg {
          name: "momentum"
          type_attr: "T"
        }
        output_arg {
          name: "out"
          type_attr: "T"
          is_ref: true
        }
        attr {
          name: "T"
          type: "type"
          allowed_values {
            list {
              type: DT_FLOAT
              type: DT_DOUBLE
              type: DT_INT64
              type: DT_INT32
              type: DT_UINT8
              type: DT_UINT16
              type: DT_INT16
              type: DT_INT8
              type: DT_COMPLEX64
              type: DT_COMPLEX128
              type: DT_QINT8
              type: DT_QUINT8
              type: DT_QINT32
              type: DT_HALF
            }
          }
        }
        attr {
          name: "use_locking"
          type: "bool"
          default_value {
            b: false
          }
        }
        attr {
          name: "use_nesterov"
          type: "bool"
          default_value {
            b: false
          }
        }
      }
      op {
        name: "ArgMax"
        input_arg {
          name: "input"
          type_attr: "T"
        }
        input_arg {
          name: "dimension"
          type_attr: "Tidx"
        }
        output_arg {
          name: "output"
          type_attr: "output_type"
        }
        attr {
          name: "T"
          type: "type"
          allowed_values {
            list {
              type: DT_FLOAT
              type: DT_DOUBLE
              type: DT_INT64
              type: DT_INT32
              type: DT_UINT8
              type: DT_UINT16
              type: DT_INT16
              type: DT_INT8
              type: DT_COMPLEX64
              type: DT_COMPLEX128
              type: DT_QINT8
              type: DT_QUINT8
              type: DT_QINT32
              type: DT_HALF
            }
          }
        }
        attr {
          name: "Tidx"
          type: "type"
          default_value {
            type: DT_INT32
          }
          allowed_values {
            list {
              type: DT_INT32
              type: DT_INT64
            }
          }
        }
        attr {
          name: "output_type"
          type: "type"
          default_value {
            type: DT_INT64
          }
          allowed_values {
            list {
              type: DT_INT32
              type: DT_INT64
            }
          }
        }
      }
      op {
        name: "Assert"
        input_arg {
          name: "condition"
          type: DT_BOOL
        }
        input_arg {
          name: "data"
          type_list_attr: "T"
        }
        attr {
          name: "T"
          type: "list(type)"
          has_minimum: true
          minimum: 1
        }
        attr {
          name: "summarize"
          type: "int"
          default_value {
            i: 3
          }
        }
        is_stateful: true
      }
      op {
        name: "Assign"
        input_arg {
          name: "ref"
          type_attr: "T"
          is_ref: true
        }
        input_arg {
          name: "value"
          type_attr: "T"
        }
        output_arg {
          name: "output_ref"
          type_attr: "T"
          is_ref: true
        }
        attr {
          name: "T"
          type: "type"
        }
        attr {
          name: "validate_shape"
          type: "bool"
          default_value {
            b: true
          }
        }
        attr {
          name: "use_locking"
          type: "bool"
          default_value {
            b: true
          }
        }
        allows_uninitialized_input: true
      }
      op {
        name: "BiasAdd"
        input_arg {
          name: "value"
          type_attr: "T"
        }
        input_arg {
          name: "bias"
          type_attr: "T"
        }
        output_arg {
          name: "output"
          type_attr: "T"
        }
        attr {
          name: "T"
          type: "type"
          allowed_values {
            list {
              type: DT_FLOAT
              type: DT_DOUBLE
              type: DT_INT64
              type: DT_INT32
              type: DT_UINT8
              type: DT_UINT16
              type: DT_INT16
              type: DT_INT8
              type: DT_COMPLEX64
              type: DT_COMPLEX128
              type: DT_QINT8
              type: DT_QUINT8
              type: DT_QINT32
              type: DT_HALF
            }
          }
        }
        attr {
          name: "data_format"
          type: "string"
          default_value {
            s: "NHWC"
          }
          allowed_values {
            list {
              s: "NHWC"
              s: "NCHW"
            }
          }
        }
      }
      op {
        name: "BiasAddGrad"
        input_arg {
          name: "out_backprop"
          type_attr: "T"
        }
        output_arg {
          name: "output"
          type_attr: "T"
        }
        attr {
          name: "T"
          type: "type"
          allowed_values {
            list {
              type: DT_FLOAT
              type: DT_DOUBLE
              type: DT_INT64
              type: DT_INT32
              type: DT_UINT8
              type: DT_UINT16
              type: DT_INT16
              type: DT_INT8
              type: DT_COMPLEX64
              type: DT_COMPLEX128
              type: DT_QINT8
              type: DT_QUINT8
              type: DT_QINT32
              type: DT_HALF
            }
          }
        }
        attr {
          name: "data_format"
          type: "string"
          default_value {
            s: "NHWC"
          }
          allowed_values {
            list {
              s: "NHWC"
              s: "NCHW"
            }
          }
        }
      }
      op {
        name: "BroadcastGradientArgs"
        input_arg {
          name: "s0"
          type_attr: "T"
        }
        input_arg {
          name: "s1"
          type_attr: "T"
        }
        output_arg {
          name: "r0"
          type_attr: "T"
        }
        output_arg {
          name: "r1"
          type_attr: "T"
        }
        attr {
          name: "T"
          type: "type"
          default_value {
            type: DT_INT32
          }
          allowed_values {
            list {
              type: DT_INT32
              type: DT_INT64
            }
          }
        }
      }
      op {
        name: "CTCGreedyDecoder"
        input_arg {
          name: "inputs"
          type: DT_FLOAT
        }
        input_arg {
          name: "sequence_length"
          type: DT_INT32
        }
        output_arg {
          name: "decoded_indices"
          type: DT_INT64
        }
        output_arg {
          name: "decoded_values"
          type: DT_INT64
        }
        output_arg {
          name: "decoded_shape"
          type: DT_INT64
        }
        output_arg {
          name: "log_probability"
          type: DT_FLOAT
        }
        attr {
          name: "merge_repeated"
          type: "bool"
          default_value {
            b: false
          }
        }
      }
      op {
        name: "CTCLoss"
        input_arg {
          name: "inputs"
          type: DT_FLOAT
        }
        input_arg {
          name: "labels_indices"
          type: DT_INT64
        }
        input_arg {
          name: "labels_values"
          type: DT_INT32
        }
        input_arg {
          name: "sequence_length"
          type: DT_INT32
        }
        output_arg {
          name: "loss"
          type: DT_FLOAT
        }
        output_arg {
          name: "gradient"
          type: DT_FLOAT
        }
        attr {
          name: "preprocess_collapse_repeated"
          type: "bool"
          default_value {
            b: false
          }
        }
        attr {
          name: "ctc_merge_repeated"
          type: "bool"
          default_value {
            b: true
          }
        }
        attr {
          name: "ignore_longer_outputs_than_inputs"
          type: "bool"
          default_value {
            b: false
          }
        }
      }
      op {
        name: "Cast"
        input_arg {
          name: "x"
          type_attr: "SrcT"
        }
        output_arg {
          name: "y"
          type_attr: "DstT"
        }
        attr {
          name: "SrcT"
          type: "type"
        }
        attr {
          name: "DstT"
          type: "type"
        }
      }
      op {
        name: "ConcatOffset"
        input_arg {
          name: "concat_dim"
          type: DT_INT32
        }
        input_arg {
          name: "shape"
          type: DT_INT32
          number_attr: "N"
        }
        output_arg {
          name: "offset"
          type: DT_INT32
          number_attr: "N"
        }
        attr {
          name: "N"
          type: "int"
          has_minimum: true
          minimum: 2
        }
      }
      op {
        name: "ConcatV2"
        input_arg {
          name: "values"
          type_attr: "T"
          number_attr: "N"
        }
        input_arg {
          name: "axis"
          type_attr: "Tidx"
        }
        output_arg {
          name: "output"
          type_attr: "T"
        }
        attr {
          name: "N"
          type: "int"
          has_minimum: true
          minimum: 2
        }
        attr {
          name: "T"
          type: "type"
        }
        attr {
          name: "Tidx"
          type: "type"
          default_value {
            type: DT_INT32
          }
          allowed_values {
            list {
              type: DT_INT32
              type: DT_INT64
            }
          }
        }
      }
      op {
        name: "Const"
        output_arg {
          name: "output"
          type_attr: "dtype"
        }
        attr {
          name: "value"
          type: "tensor"
        }
        attr {
          name: "dtype"
          type: "type"
        }
      }
      op {
        name: "ControlTrigger"
      }
      op {
        name: "EditDistance"
        input_arg {
          name: "hypothesis_indices"
          type: DT_INT64
        }
        input_arg {
          name: "hypothesis_values"
          type_attr: "T"
        }
        input_arg {
          name: "hypothesis_shape"
          type: DT_INT64
        }
        input_arg {
          name: "truth_indices"
          type: DT_INT64
        }
        input_arg {
          name: "truth_values"
          type_attr: "T"
        }
        input_arg {
          name: "truth_shape"
          type: DT_INT64
        }
        output_arg {
          name: "output"
          type: DT_FLOAT
        }
        attr {
          name: "normalize"
          type: "bool"
          default_value {
            b: true
          }
        }
        attr {
          name: "T"
          type: "type"
        }
      }
      op {
        name: "Enter"
        input_arg {
          name: "data"
          type_attr: "T"
        }
        output_arg {
          name: "output"
          type_attr: "T"
        }
        attr {
          name: "T"
          type: "type"
        }
        attr {
          name: "frame_name"
          type: "string"
        }
        attr {
          name: "is_constant"
          type: "bool"
          default_value {
            b: false
          }
        }
        attr {
          name: "parallel_iterations"
          type: "int"
          default_value {
            i: 10
          }
        }
      }
      op {
        name: "Equal"
        input_arg {
          name: "x"
          type_attr: "T"
        }
        input_arg {
          name: "y"
          type_attr: "T"
        }
        output_arg {
          name: "z"
          type: DT_BOOL
        }
        attr {
          name: "T"
          type: "type"
          allowed_values {
            list {
              type: DT_HALF
              type: DT_FLOAT
              type: DT_DOUBLE
              type: DT_UINT8
              type: DT_INT8
              type: DT_INT16
              type: DT_INT32
              type: DT_INT64
              type: DT_COMPLEX64
              type: DT_QUINT8
              type: DT_QINT8
              type: DT_QINT32
              type: DT_STRING
              type: DT_BOOL
              type: DT_COMPLEX128
            }
          }
        }
        is_commutative: true
      }
      op {
        name: "Exit"
        input_arg {
          name: "data"
          type_attr: "T"
        }
        output_arg {
          name: "output"
          type_attr: "T"
        }
        attr {
          name: "T"
          type: "type"
        }
      }
      op {
        name: "ExpandDims"
        input_arg {
          name: "input"
          type_attr: "T"
        }
        input_arg {
          name: "dim"
          type_attr: "Tdim"
        }
        output_arg {
          name: "output"
          type_attr: "T"
        }
        attr {
          name: "T"
          type: "type"
        }
        attr {
          name: "Tdim"
          type: "type"
          default_value {
            type: DT_INT32
          }
          allowed_values {
            list {
              type: DT_INT32
              type: DT_INT64
            }
          }
        }
      }
      op {
        name: "Fill"
        input_arg {
          name: "dims"
          type: DT_INT32
        }
        input_arg {
          name: "value"
          type_attr: "T"
        }
        output_arg {
          name: "output"
          type_attr: "T"
        }
        attr {
          name: "T"
          type: "type"
        }
      }
      op {
        name: "FloorDiv"
        input_arg {
          name: "x"
          type_attr: "T"
        }
        input_arg {
          name: "y"
          type_attr: "T"
        }
        output_arg {
          name: "z"
          type_attr: "T"
        }
        attr {
          name: "T"
          type: "type"
          allowed_values {
            list {
              type: DT_HALF
              type: DT_FLOAT
              type: DT_DOUBLE
              type: DT_UINT8
              type: DT_INT8
              type: DT_UINT16
              type: DT_INT16
              type: DT_INT32
              type: DT_INT64
              type: DT_COMPLEX64
              type: DT_COMPLEX128
            }
          }
        }
      }
      op {
        name: "FloorMod"
        input_arg {
          name: "x"
          type_attr: "T"
        }
        input_arg {
          name: "y"
          type_attr: "T"
        }
        output_arg {
          name: "z"
          type_attr: "T"
        }
        attr {
          name: "T"
          type: "type"
          allowed_values {
            list {
              type: DT_INT32
              type: DT_INT64
              type: DT_FLOAT
              type: DT_DOUBLE
            }
          }
        }
      }
      op {
        name: "GreaterEqual"
        input_arg {
          name: "x"
          type_attr: "T"
        }
        input_arg {
          name: "y"
          type_attr: "T"
        }
        output_arg {
          name: "z"
          type: DT_BOOL
        }
        attr {
          name: "T"
          type: "type"
          allowed_values {
            list {
              type: DT_FLOAT
              type: DT_DOUBLE
              type: DT_INT32
              type: DT_INT64
              type: DT_UINT8
              type: DT_INT16
              type: DT_INT8
              type: DT_UINT16
              type: DT_HALF
            }
          }
        }
      }
      op {
        name: "Identity"
        input_arg {
          name: "input"
          type_attr: "T"
        }
        output_arg {
          name: "output"
          type_attr: "T"
        }
        attr {
          name: "T"
          type: "type"
        }
      }
      op {
        name: "InvertPermutation"
        input_arg {
          name: "x"
          type_attr: "T"
        }
        output_arg {
          name: "y"
          type_attr: "T"
        }
        attr {
          name: "T"
          type: "type"
          default_value {
            type: DT_INT32
          }
          allowed_values {
            list {
              type: DT_INT32
              type: DT_INT64
            }
          }
        }
      }
      op {
        name: "Less"
        input_arg {
          name: "x"
          type_attr: "T"
        }
        input_arg {
          name: "y"
          type_attr: "T"
        }
        output_arg {
          name: "z"
          type: DT_BOOL
        }
        attr {
          name: "T"
          type: "type"
          allowed_values {
            list {
              type: DT_FLOAT
              type: DT_DOUBLE
              type: DT_INT32
              type: DT_INT64
              type: DT_UINT8
              type: DT_INT16
              type: DT_INT8
              type: DT_UINT16
              type: DT_HALF
            }
          }
        }
      }
      op {
        name: "LoopCond"
        input_arg {
          name: "input"
          type: DT_BOOL
        }
        output_arg {
          name: "output"
          type: DT_BOOL
        }
      }
      op {
        name: "MatMul"
        input_arg {
          name: "a"
          type_attr: "T"
        }
        input_arg {
          name: "b"
          type_attr: "T"
        }
        output_arg {
          name: "product"
          type_attr: "T"
        }
        attr {
          name: "transpose_a"
          type: "bool"
          default_value {
            b: false
          }
        }
        attr {
          name: "transpose_b"
          type: "bool"
          default_value {
            b: false
          }
        }
        attr {
          name: "T"
          type: "type"
          allowed_values {
            list {
              type: DT_HALF
              type: DT_FLOAT
              type: DT_DOUBLE
              type: DT_INT32
              type: DT_COMPLEX64
              type: DT_COMPLEX128
            }
          }
        }
      }
      op {
        name: "Max"
        input_arg {
          name: "input"
          type_attr: "T"
        }
        input_arg {
          name: "reduction_indices"
          type_attr: "Tidx"
        }
        output_arg {
          name: "output"
          type_attr: "T"
        }
        attr {
          name: "keep_dims"
          type: "bool"
          default_value {
            b: false
          }
        }
        attr {
          name: "T"
          type: "type"
          allowed_values {
            list {
              type: DT_FLOAT
              type: DT_DOUBLE
              type: DT_INT64
              type: DT_INT32
              type: DT_UINT8
              type: DT_UINT16
              type: DT_INT16
              type: DT_INT8
              type: DT_COMPLEX64
              type: DT_COMPLEX128
              type: DT_QINT8
              type: DT_QUINT8
              type: DT_QINT32
              type: DT_HALF
            }
          }
        }
        attr {
          name: "Tidx"
          type: "type"
          default_value {
            type: DT_INT32
          }
          allowed_values {
            list {
              type: DT_INT32
              type: DT_INT64
            }
          }
        }
      }
      op {
        name: "Maximum"
        input_arg {
          name: "x"
          type_attr: "T"
        }
        input_arg {
          name: "y"
          type_attr: "T"
        }
        output_arg {
          name: "z"
          type_attr: "T"
        }
        attr {
          name: "T"
          type: "type"
          allowed_values {
            list {
              type: DT_HALF
              type: DT_FLOAT
              type: DT_DOUBLE
              type: DT_INT32
              type: DT_INT64
            }
          }
        }
        is_commutative: true
      }
      op {
        name: "Mean"
        input_arg {
          name: "input"
          type_attr: "T"
        }
        input_arg {
          name: "reduction_indices"
          type_attr: "Tidx"
        }
        output_arg {
          name: "output"
          type_attr: "T"
        }
        attr {
          name: "keep_dims"
          type: "bool"
          default_value {
            b: false
          }
        }
        attr {
          name: "T"
          type: "type"
          allowed_values {
            list {
              type: DT_FLOAT
              type: DT_DOUBLE
              type: DT_INT64
              type: DT_INT32
              type: DT_UINT8
              type: DT_UINT16
              type: DT_INT16
              type: DT_INT8
              type: DT_COMPLEX64
              type: DT_COMPLEX128
              type: DT_QINT8
              type: DT_QUINT8
              type: DT_QINT32
              type: DT_HALF
            }
          }
        }
        attr {
          name: "Tidx"
          type: "type"
          default_value {
            type: DT_INT32
          }
          allowed_values {
            list {
              type: DT_INT32
              type: DT_INT64
            }
          }
        }
      }
      op {
        name: "Merge"
        input_arg {
          name: "inputs"
          type_attr: "T"
          number_attr: "N"
        }
        output_arg {
          name: "output"
          type_attr: "T"
        }
        output_arg {
          name: "value_index"
          type: DT_INT32
        }
        attr {
          name: "T"
          type: "type"
        }
        attr {
          name: "N"
          type: "int"
          has_minimum: true
          minimum: 1
        }
      }
      op {
        name: "MergeV2Checkpoints"
        input_arg {
          name: "checkpoint_prefixes"
          type: DT_STRING
        }
        input_arg {
          name: "destination_prefix"
          type: DT_STRING
        }
        attr {
          name: "delete_old_dirs"
          type: "bool"
          default_value {
            b: true
          }
        }
        is_stateful: true
      }
      op {
        name: "Min"
        input_arg {
          name: "input"
          type_attr: "T"
        }
        input_arg {
          name: "reduction_indices"
          type_attr: "Tidx"
        }
        output_arg {
          name: "output"
          type_attr: "T"
        }
        attr {
          name: "keep_dims"
          type: "bool"
          default_value {
            b: false
          }
        }
        attr {
          name: "T"
          type: "type"
          allowed_values {
            list {
              type: DT_FLOAT
              type: DT_DOUBLE
              type: DT_INT64
              type: DT_INT32
              type: DT_UINT8
              type: DT_UINT16
              type: DT_INT16
              type: DT_INT8
              type: DT_COMPLEX64
              type: DT_COMPLEX128
              type: DT_QINT8
              type: DT_QUINT8
              type: DT_QINT32
              type: DT_HALF
            }
          }
        }
        attr {
          name: "Tidx"
          type: "type"
          default_value {
            type: DT_INT32
          }
          allowed_values {
            list {
              type: DT_INT32
              type: DT_INT64
            }
          }
        }
      }
      op {
        name: "Mul"
        input_arg {
          name: "x"
          type_attr: "T"
        }
        input_arg {
          name: "y"
          type_attr: "T"
        }
        output_arg {
          name: "z"
          type_attr: "T"
        }
        attr {
          name: "T"
          type: "type"
          allowed_values {
            list {
              type: DT_HALF
              type: DT_FLOAT
              type: DT_DOUBLE
              type: DT_UINT8
              type: DT_INT8
              type: DT_UINT16
              type: DT_INT16
              type: DT_INT32
              type: DT_INT64
              type: DT_COMPLEX64
              type: DT_COMPLEX128
            }
          }
        }
        is_commutative: true
      }
      op {
        name: "NextIteration"
        input_arg {
          name: "data"
          type_attr: "T"
        }
        output_arg {
          name: "output"
          type_attr: "T"
        }
        attr {
          name: "T"
          type: "type"
        }
      }
      op {
        name: "NoOp"
      }
      op {
        name: "Pack"
        input_arg {
          name: "values"
          type_attr: "T"
          number_attr: "N"
        }
        output_arg {
          name: "output"
          type_attr: "T"
        }
        attr {
          name: "N"
          type: "int"
          has_minimum: true
          minimum: 1
        }
        attr {
          name: "T"
          type: "type"
        }
        attr {
          name: "axis"
          type: "int"
          default_value {
            i: 0
          }
        }
      }
      op {
        name: "Placeholder"
        output_arg {
          name: "output"
          type_attr: "dtype"
        }
        attr {
          name: "dtype"
          type: "type"
        }
        attr {
          name: "shape"
          type: "shape"
          default_value {
            shape {
              unknown_rank: true
            }
          }
        }
      }
      op {
        name: "PreventGradient"
        input_arg {
          name: "input"
          type_attr: "T"
        }
        output_arg {
          name: "output"
          type_attr: "T"
        }
        attr {
          name: "T"
          type: "type"
        }
        attr {
          name: "message"
          type: "string"
          default_value {
            s: ""
          }
        }
      }
      op {
        name: "Prod"
        input_arg {
          name: "input"
          type_attr: "T"
        }
        input_arg {
          name: "reduction_indices"
          type_attr: "Tidx"
        }
        output_arg {
          name: "output"
          type_attr: "T"
        }
        attr {
          name: "keep_dims"
          type: "bool"
          default_value {
            b: false
          }
        }
        attr {
          name: "T"
          type: "type"
          allowed_values {
            list {
              type: DT_FLOAT
              type: DT_DOUBLE
              type: DT_INT64
              type: DT_INT32
              type: DT_UINT8
              type: DT_UINT16
              type: DT_INT16
              type: DT_INT8
              type: DT_COMPLEX64
              type: DT_COMPLEX128
              type: DT_QINT8
              type: DT_QUINT8
              type: DT_QINT32
              type: DT_HALF
            }
          }
        }
        attr {
          name: "Tidx"
          type: "type"
          default_value {
            type: DT_INT32
          }
          allowed_values {
            list {
              type: DT_INT32
              type: DT_INT64
            }
          }
        }
      }
      op {
        name: "RandomUniform"
        input_arg {
          name: "shape"
          type_attr: "T"
        }
        output_arg {
          name: "output"
          type_attr: "dtype"
        }
        attr {
          name: "seed"
          type: "int"
          default_value {
            i: 0
          }
        }
        attr {
          name: "seed2"
          type: "int"
          default_value {
            i: 0
          }
        }
        attr {
          name: "dtype"
          type: "type"
          allowed_values {
            list {
              type: DT_HALF
              type: DT_FLOAT
              type: DT_DOUBLE
            }
          }
        }
        attr {
          name: "T"
          type: "type"
          allowed_values {
            list {
              type: DT_INT32
              type: DT_INT64
            }
          }
        }
        is_stateful: true
      }
      op {
        name: "Range"
        input_arg {
          name: "start"
          type_attr: "Tidx"
        }
        input_arg {
          name: "limit"
          type_attr: "Tidx"
        }
        input_arg {
          name: "delta"
          type_attr: "Tidx"
        }
        output_arg {
          name: "output"
          type_attr: "Tidx"
        }
        attr {
          name: "Tidx"
          type: "type"
          default_value {
            type: DT_INT32
          }
          allowed_values {
            list {
              type: DT_FLOAT
              type: DT_DOUBLE
              type: DT_INT32
              type: DT_INT64
            }
          }
        }
      }
      op {
        name: "Rank"
        input_arg {
          name: "input"
          type_attr: "T"
        }
        output_arg {
          name: "output"
          type: DT_INT32
        }
        attr {
          name: "T"
          type: "type"
        }
      }
      op {
        name: "RealDiv"
        input_arg {
          name: "x"
          type_attr: "T"
        }
        input_arg {
          name: "y"
          type_attr: "T"
        }
        output_arg {
          name: "z"
          type_attr: "T"
        }
        attr {
          name: "T"
          type: "type"
          allowed_values {
            list {
              type: DT_HALF
              type: DT_FLOAT
              type: DT_DOUBLE
              type: DT_UINT8
              type: DT_INT8
              type: DT_UINT16
              type: DT_INT16
              type: DT_INT32
              type: DT_INT64
              type: DT_COMPLEX64
              type: DT_COMPLEX128
            }
          }
        }
      }
      op {
        name: "RefEnter"
        input_arg {
          name: "data"
          type_attr: "T"
          is_ref: true
        }
        output_arg {
          name: "output"
          type_attr: "T"
          is_ref: true
        }
        attr {
          name: "T"
          type: "type"
        }
        attr {
          name: "frame_name"
          type: "string"
        }
        attr {
          name: "is_constant"
          type: "bool"
          default_value {
            b: false
          }
        }
        attr {
          name: "parallel_iterations"
          type: "int"
          default_value {
            i: 10
          }
        }
      }
      op {
        name: "Reshape"
        input_arg {
          name: "tensor"
          type_attr: "T"
        }
        input_arg {
          name: "shape"
          type_attr: "Tshape"
        }
        output_arg {
          name: "output"
          type_attr: "T"
        }
        attr {
          name: "T"
          type: "type"
        }
        attr {
          name: "Tshape"
          type: "type"
          default_value {
            type: DT_INT32
          }
          allowed_values {
            list {
              type: DT_INT32
              type: DT_INT64
            }
          }
        }
      }
      op {
        name: "RestoreV2"
        input_arg {
          name: "prefix"
          type: DT_STRING
        }
        input_arg {
          name: "tensor_names"
          type: DT_STRING
        }
        input_arg {
          name: "shape_and_slices"
          type: DT_STRING
        }
        output_arg {
          name: "tensors"
          type_list_attr: "dtypes"
        }
        attr {
          name: "dtypes"
          type: "list(type)"
          has_minimum: true
          minimum: 1
        }
        is_stateful: true
      }
      op {
        name: "SaveV2"
        input_arg {
          name: "prefix"
          type: DT_STRING
        }
        input_arg {
          name: "tensor_names"
          type: DT_STRING
        }
        input_arg {
          name: "shape_and_slices"
          type: DT_STRING
        }
        input_arg {
          name: "tensors"
          type_list_attr: "dtypes"
        }
        attr {
          name: "dtypes"
          type: "list(type)"
          has_minimum: true
          minimum: 1
        }
        is_stateful: true
      }
      op {
        name: "Select"
        input_arg {
          name: "condition"
          type: DT_BOOL
        }
        input_arg {
          name: "t"
          type_attr: "T"
        }
        input_arg {
          name: "e"
          type_attr: "T"
        }
        output_arg {
          name: "output"
          type_attr: "T"
        }
        attr {
          name: "T"
          type: "type"
        }
      }
      op {
        name: "Shape"
        input_arg {
          name: "input"
          type_attr: "T"
        }
        output_arg {
          name: "output"
          type_attr: "out_type"
        }
        attr {
          name: "T"
          type: "type"
        }
        attr {
          name: "out_type"
          type: "type"
          default_value {
            type: DT_INT32
          }
          allowed_values {
            list {
              type: DT_INT32
              type: DT_INT64
            }
          }
        }
      }
      op {
        name: "ShapeN"
        input_arg {
          name: "input"
          type_attr: "T"
          number_attr: "N"
        }
        output_arg {
          name: "output"
          type_attr: "out_type"
          number_attr: "N"
        }
        attr {
          name: "N"
          type: "int"
          has_minimum: true
          minimum: 1
        }
        attr {
          name: "T"
          type: "type"
        }
        attr {
          name: "out_type"
          type: "type"
          default_value {
            type: DT_INT32
          }
          allowed_values {
            list {
              type: DT_INT32
              type: DT_INT64
            }
          }
        }
      }
      op {
        name: "ShardedFilename"
        input_arg {
          name: "basename"
          type: DT_STRING
        }
        input_arg {
          name: "shard"
          type: DT_INT32
        }
        input_arg {
          name: "num_shards"
          type: DT_INT32
        }
        output_arg {
          name: "filename"
          type: DT_STRING
        }
      }
      op {
        name: "Sigmoid"
        input_arg {
          name: "x"
          type_attr: "T"
        }
        output_arg {
          name: "y"
          type_attr: "T"
        }
        attr {
          name: "T"
          type: "type"
          allowed_values {
            list {
              type: DT_HALF
              type: DT_FLOAT
              type: DT_DOUBLE
              type: DT_COMPLEX64
              type: DT_COMPLEX128
            }
          }
        }
      }
      op {
        name: "SigmoidGrad"
        input_arg {
          name: "x"
          type_attr: "T"
        }
        input_arg {
          name: "y"
          type_attr: "T"
        }
        output_arg {
          name: "z"
          type_attr: "T"
        }
        attr {
          name: "T"
          type: "type"
          allowed_values {
            list {
              type: DT_HALF
              type: DT_FLOAT
              type: DT_DOUBLE
              type: DT_COMPLEX64
              type: DT_COMPLEX128
            }
          }
        }
      }
      op {
        name: "Slice"
        input_arg {
          name: "input"
          type_attr: "T"
        }
        input_arg {
          name: "begin"
          type_attr: "Index"
        }
        input_arg {
          name: "size"
          type_attr: "Index"
        }
        output_arg {
          name: "output"
          type_attr: "T"
        }
        attr {
          name: "T"
          type: "type"
        }
        attr {
          name: "Index"
          type: "type"
          allowed_values {
            list {
              type: DT_INT32
              type: DT_INT64
            }
          }
        }
      }
      op {
        name: "Split"
        input_arg {
          name: "split_dim"
          type: DT_INT32
        }
        input_arg {
          name: "value"
          type_attr: "T"
        }
        output_arg {
          name: "output"
          type_attr: "T"
          number_attr: "num_split"
        }
        attr {
          name: "num_split"
          type: "int"
          has_minimum: true
          minimum: 1
        }
        attr {
          name: "T"
          type: "type"
        }
      }
      op {
        name: "Stack"
        output_arg {
          name: "handle"
          type: DT_STRING
          is_ref: true
        }
        attr {
          name: "elem_type"
          type: "type"
        }
        attr {
          name: "stack_name"
          type: "string"
          default_value {
            s: ""
          }
        }
        is_stateful: true
      }
      op {
        name: "StackPop"
        input_arg {
          name: "handle"
          type: DT_STRING
          is_ref: true
        }
        output_arg {
          name: "elem"
          type_attr: "elem_type"
        }
        attr {
          name: "elem_type"
          type: "type"
        }
      }
      op {
        name: "StackPush"
        input_arg {
          name: "handle"
          type: DT_STRING
          is_ref: true
        }
        input_arg {
          name: "elem"
          type_attr: "T"
        }
        output_arg {
          name: "output"
          type_attr: "T"
        }
        attr {
          name: "T"
          type: "type"
        }
        attr {
          name: "swap_memory"
          type: "bool"
          default_value {
            b: false
          }
        }
      }
      op {
        name: "StridedSlice"
        input_arg {
          name: "input"
          type_attr: "T"
        }
        input_arg {
          name: "begin"
          type_attr: "Index"
        }
        input_arg {
          name: "end"
          type_attr: "Index"
        }
        input_arg {
          name: "strides"
          type_attr: "Index"
        }
        output_arg {
          name: "output"
          type_attr: "T"
        }
        attr {
          name: "T"
          type: "type"
        }
        attr {
          name: "Index"
          type: "type"
          allowed_values {
            list {
              type: DT_INT32
              type: DT_INT64
            }
          }
        }
        attr {
          name: "begin_mask"
          type: "int"
          default_value {
            i: 0
          }
        }
        attr {
          name: "end_mask"
          type: "int"
          default_value {
            i: 0
          }
        }
        attr {
          name: "ellipsis_mask"
          type: "int"
          default_value {
            i: 0
          }
        }
        attr {
          name: "new_axis_mask"
          type: "int"
          default_value {
            i: 0
          }
        }
        attr {
          name: "shrink_axis_mask"
          type: "int"
          default_value {
            i: 0
          }
        }
      }
      op {
        name: "StringJoin"
        input_arg {
          name: "inputs"
          type: DT_STRING
          number_attr: "N"
        }
        output_arg {
          name: "output"
          type: DT_STRING
        }
        attr {
          name: "N"
          type: "int"
          has_minimum: true
          minimum: 1
        }
        attr {
          name: "separator"
          type: "string"
          default_value {
            s: ""
          }
        }
      }
      op {
        name: "Sub"
        input_arg {
          name: "x"
          type_attr: "T"
        }
        input_arg {
          name: "y"
          type_attr: "T"
        }
        output_arg {
          name: "z"
          type_attr: "T"
        }
        attr {
          name: "T"
          type: "type"
          allowed_values {
            list {
              type: DT_HALF
              type: DT_FLOAT
              type: DT_DOUBLE
              type: DT_INT32
              type: DT_INT64
              type: DT_COMPLEX64
              type: DT_COMPLEX128
            }
          }
        }
      }
      op {
        name: "Sum"
        input_arg {
          name: "input"
          type_attr: "T"
        }
        input_arg {
          name: "reduction_indices"
          type_attr: "Tidx"
        }
        output_arg {
          name: "output"
          type_attr: "T"
        }
        attr {
          name: "keep_dims"
          type: "bool"
          default_value {
            b: false
          }
        }
        attr {
          name: "T"
          type: "type"
          allowed_values {
            list {
              type: DT_FLOAT
              type: DT_DOUBLE
              type: DT_INT64
              type: DT_INT32
              type: DT_UINT8
              type: DT_UINT16
              type: DT_INT16
              type: DT_INT8
              type: DT_COMPLEX64
              type: DT_COMPLEX128
              type: DT_QINT8
              type: DT_QUINT8
              type: DT_QINT32
              type: DT_HALF
            }
          }
        }
        attr {
          name: "Tidx"
          type: "type"
          default_value {
            type: DT_INT32
          }
          allowed_values {
            list {
              type: DT_INT32
              type: DT_INT64
            }
          }
        }
      }
      op {
        name: "Switch"
        input_arg {
          name: "data"
          type_attr: "T"
        }
        input_arg {
          name: "pred"
          type: DT_BOOL
        }
        output_arg {
          name: "output_false"
          type_attr: "T"
        }
        output_arg {
          name: "output_true"
          type_attr: "T"
        }
        attr {
          name: "T"
          type: "type"
        }
      }
      op {
        name: "Tanh"
        input_arg {
          name: "x"
          type_attr: "T"
        }
        output_arg {
          name: "y"
          type_attr: "T"
        }
        attr {
          name: "T"
          type: "type"
          allowed_values {
            list {
              type: DT_HALF
              type: DT_FLOAT
              type: DT_DOUBLE
              type: DT_COMPLEX64
              type: DT_COMPLEX128
            }
          }
        }
      }
      op {
        name: "TanhGrad"
        input_arg {
          name: "x"
          type_attr: "T"
        }
        input_arg {
          name: "y"
          type_attr: "T"
        }
        output_arg {
          name: "z"
          type_attr: "T"
        }
        attr {
          name: "T"
          type: "type"
          allowed_values {
            list {
              type: DT_HALF
              type: DT_FLOAT
              type: DT_DOUBLE
              type: DT_COMPLEX64
              type: DT_COMPLEX128
            }
          }
        }
      }
      op {
        name: "TensorArrayGatherV3"
        input_arg {
          name: "handle"
          type: DT_RESOURCE
        }
        input_arg {
          name: "indices"
          type: DT_INT32
        }
        input_arg {
          name: "flow_in"
          type: DT_FLOAT
        }
        output_arg {
          name: "value"
          type_attr: "dtype"
        }
        attr {
          name: "dtype"
          type: "type"
        }
        attr {
          name: "element_shape"
          type: "shape"
          default_value {
            shape {
              unknown_rank: true
            }
          }
        }
        is_stateful: true
      }
      op {
        name: "TensorArrayGradV3"
        input_arg {
          name: "handle"
          type: DT_RESOURCE
        }
        input_arg {
          name: "flow_in"
          type: DT_FLOAT
        }
        output_arg {
          name: "grad_handle"
          type: DT_RESOURCE
        }
        output_arg {
          name: "flow_out"
          type: DT_FLOAT
        }
        attr {
          name: "source"
          type: "string"
        }
        is_stateful: true
      }
      op {
        name: "TensorArrayReadV3"
        input_arg {
          name: "handle"
          type: DT_RESOURCE
        }
        input_arg {
          name: "index"
          type: DT_INT32
        }
        input_arg {
          name: "flow_in"
          type: DT_FLOAT
        }
        output_arg {
          name: "value"
          type_attr: "dtype"
        }
        attr {
          name: "dtype"
          type: "type"
        }
        is_stateful: true
      }
      op {
        name: "TensorArrayScatterV3"
        input_arg {
          name: "handle"
          type: DT_RESOURCE
        }
        input_arg {
          name: "indices"
          type: DT_INT32
        }
        input_arg {
          name: "value"
          type_attr: "T"
        }
        input_arg {
          name: "flow_in"
          type: DT_FLOAT
        }
        output_arg {
          name: "flow_out"
          type: DT_FLOAT
        }
        attr {
          name: "T"
          type: "type"
        }
        is_stateful: true
      }
      op {
        name: "TensorArraySizeV3"
        input_arg {
          name: "handle"
          type: DT_RESOURCE
        }
        input_arg {
          name: "flow_in"
          type: DT_FLOAT
        }
        output_arg {
          name: "size"
          type: DT_INT32
        }
        is_stateful: true
      }
      op {
        name: "TensorArrayV3"
        input_arg {
          name: "size"
          type: DT_INT32
        }
        output_arg {
          name: "handle"
          type: DT_RESOURCE
        }
        output_arg {
          name: "flow"
          type: DT_FLOAT
        }
        attr {
          name: "dtype"
          type: "type"
        }
        attr {
          name: "element_shape"
          type: "shape"
          default_value {
            shape {
              unknown_rank: true
            }
          }
        }
        attr {
          name: "dynamic_size"
          type: "bool"
          default_value {
            b: false
          }
        }
        attr {
          name: "clear_after_read"
          type: "bool"
          default_value {
            b: true
          }
        }
        attr {
          name: "tensor_array_name"
          type: "string"
          default_value {
            s: ""
          }
        }
        is_stateful: true
      }
      op {
        name: "TensorArrayWriteV3"
        input_arg {
          name: "handle"
          type: DT_RESOURCE
        }
        input_arg {
          name: "index"
          type: DT_INT32
        }
        input_arg {
          name: "value"
          type_attr: "T"
        }
        input_arg {
          name: "flow_in"
          type: DT_FLOAT
        }
        output_arg {
          name: "flow_out"
          type: DT_FLOAT
        }
        attr {
          name: "T"
          type: "type"
        }
        is_stateful: true
      }
      op {
        name: "Tile"
        input_arg {
          name: "input"
          type_attr: "T"
        }
        input_arg {
          name: "multiples"
          type_attr: "Tmultiples"
        }
        output_arg {
          name: "output"
          type_attr: "T"
        }
        attr {
          name: "T"
          type: "type"
        }
        attr {
          name: "Tmultiples"
          type: "type"
          default_value {
            type: DT_INT32
          }
          allowed_values {
            list {
              type: DT_INT32
              type: DT_INT64
            }
          }
        }
      }
      op {
        name: "Transpose"
        input_arg {
          name: "x"
          type_attr: "T"
        }
        input_arg {
          name: "perm"
          type_attr: "Tperm"
        }
        output_arg {
          name: "y"
          type_attr: "T"
        }
        attr {
          name: "T"
          type: "type"
        }
        attr {
          name: "Tperm"
          type: "type"
          default_value {
            type: DT_INT32
          }
          allowed_values {
            list {
              type: DT_INT32
              type: DT_INT64
            }
          }
        }
      }
      op {
        name: "TruncatedNormal"
        input_arg {
          name: "shape"
          type_attr: "T"
        }
        output_arg {
          name: "output"
          type_attr: "dtype"
        }
        attr {
          name: "seed"
          type: "int"
          default_value {
            i: 0
          }
        }
        attr {
          name: "seed2"
          type: "int"
          default_value {
            i: 0
          }
        }
        attr {
          name: "dtype"
          type: "type"
          allowed_values {
            list {
              type: DT_HALF
              type: DT_FLOAT
              type: DT_DOUBLE
            }
          }
        }
        attr {
          name: "T"
          type: "type"
          allowed_values {
            list {
              type: DT_INT32
              type: DT_INT64
            }
          }
        }
        is_stateful: true
      }
      op {
        name: "VariableV2"
        output_arg {
          name: "ref"
          type_attr: "dtype"
          is_ref: true
        }
        attr {
          name: "shape"
          type: "shape"
        }
        attr {
          name: "dtype"
          type: "type"
        }
        attr {
          name: "container"
          type: "string"
          default_value {
            s: ""
          }
        }
        attr {
          name: "shared_name"
          type: "string"
          default_value {
            s: ""
          }
        }
        is_stateful: true
      }
      op {
        name: "ZerosLike"
        input_arg {
          name: "x"
          type_attr: "T"
        }
        output_arg {
          name: "y"
          type_attr: "T"
        }
        attr {
          name: "T"
          type: "type"
        }
      }
    }
    tags: "serve"
    tensorflow_version: "1.3.0"
    tensorflow_git_version: "b\'unknown\'"
  }
  graph_def {
    node {
      name: "Variable/initial_value"
      op: "Const"
      attr {
        key: "_output_shapes"
        value {
          list {
            shape {
            }
          }
        }
      }
      attr {
        key: "dtype"
        value {
          type: DT_INT32
        }
      }
      attr {
        key: "value"
        value {
          tensor {
            dtype: DT_INT32
            tensor_shape {
            }
            int_val: 0
          }
        }
      }
    }
    node {
      name: "Variable"
      op: "VariableV2"
      attr {
        key: "_output_shapes"
        value {
          list {
            shape {
            }
          }
        }
      }
      attr {
        key: "container"
        value {
          s: ""
        }
      }
      attr {
        key: "dtype"
        value {
          type: DT_INT32
        }
      }
      attr {
        key: "shape"
        value {
          shape {
          }
        }
      }
      attr {
        key: "shared_name"
        value {
          s: ""
        }
      }
    }
    node {
      name: "Variable/Assign"
      op: "Assign"
      input: "Variable"
      input: "Variable/initial_value"
      attr {
        key: "T"
        value {
          type: DT_INT32
        }
      }
      attr {
        key: "_class"
        value {
          list {
            s: "loc:@Variable"
          }
        }
      }
      attr {
        key: "_output_shapes"
        value {
          list {
            shape {
            }
          }
        }
      }
      attr {
        key: "use_locking"
        value {
          b: true
        }
      }
      attr {
        key: "validate_shape"
        value {
          b: true
        }
      }
    }
    node {
      name: "Variable/read"
      op: "Identity"
      input: "Variable"
      attr {
        key: "T"
        value {
          type: DT_INT32
        }
      }
      attr {
        key: "_class"
        value {
          list {
            s: "loc:@Variable"
          }
        }
      }
      attr {
        key: "_output_shapes"
        value {
          list {
            shape {
            }
          }
        }
      }
    }
    node {
      name: "input_x"
      op: "Placeholder"
      attr {
        key: "_output_shapes"
        value {
          list {
            shape {
              dim {
                size: -1
              }
              dim {
                size: 1
              }
              dim {
                size: 41
              }
            }
          }
        }
      }
      attr {
        key: "dtype"
        value {
          type: DT_FLOAT
        }
      }
      attr {
        key: "shape"
        value {
          shape {
            dim {
              size: -1
            }
            dim {
              size: 1
            }
            dim {
              size: 41
            }
          }
        }
      }
    }
    node {
      name: "Placeholder"
      op: "Placeholder"
      attr {
        key: "_output_shapes"
        value {
          list {
            shape {
              dim {
                size: -1
              }
            }
          }
        }
      }
      attr {
        key: "dtype"
        value {
          type: DT_INT64
        }
      }
      attr {
        key: "shape"
        value {
          shape {
            dim {
              size: -1
            }
          }
        }
      }
    }
    node {
      name: "Placeholder_1"
      op: "Placeholder"
      attr {
        key: "_output_shapes"
        value {
          list {
            shape {
              dim {
                size: -1
              }
            }
          }
        }
      }
      attr {
        key: "dtype"
        value {
          type: DT_INT32
        }
      }
      attr {
        key: "shape"
        value {
          shape {
            dim {
              size: -1
            }
          }
        }
      }
    }
    node {
      name: "Placeholder_2"
      op: "Placeholder"
      attr {
        key: "_output_shapes"
        value {
          list {
            shape {
              dim {
                size: -1
              }
              dim {
                size: -1
              }
            }
          }
        }
      }
      attr {
        key: "dtype"
        value {
          type: DT_INT64
        }
      }
      attr {
        key: "shape"
        value {
          shape {
            dim {
              size: -1
            }
            dim {
              size: -1
            }
          }
        }
      }
    }
    node {
      name: "Placeholder_3"
      op: "Placeholder"
      attr {
        key: "_output_shapes"
        value {
          list {
            shape {
              dim {
                size: -1
              }
            }
          }
        }
      }
      attr {
        key: "dtype"
        value {
          type: DT_INT32
        }
      }
      attr {
        key: "shape"
        value {
          shape {
            dim {
              size: -1
            }
          }
        }
      }
    }
    node {
      name: "Shape"
      op: "Shape"
      input: "input_x"
      attr {
        key: "T"
        value {
          type: DT_FLOAT
        }
      }
      attr {
        key: "_output_shapes"
        value {
          list {
            shape {
              dim {
                size: 3
              }
            }
          }
        }
      }
      attr {
        key: "out_type"
        value {
          type: DT_INT32
        }
      }
    }
    node {
      name: "strided_slice/stack"
      op: "Const"
      attr {
        key: "_output_shapes"
        value {
          list {
            shape {
              dim {
                size: 1
              }
            }
          }
        }
      }
      attr {
        key: "dtype"
        value {
          type: DT_INT32
        }
      }
      attr {
        key: "value"
        value {
          tensor {
            dtype: DT_INT32
            tensor_shape {
              dim {
                size: 1
              }
            }
            int_val: 0
          }
        }
      }
    }
    node {
      name: "strided_slice/stack_1"
      op: "Const"
      attr {
        key: "_output_shapes"
        value {
          list {
            shape {
              dim {
                size: 1
              }
            }
          }
        }
      }
      attr {
        key: "dtype"
        value {
          type: DT_INT32
        }
      }
      attr {
        key: "value"
        value {
          tensor {
            dtype: DT_INT32
            tensor_shape {
              dim {
                size: 1
              }
            }
            int_val: 1
          }
        }
      }
    }
    node {
      name: "strided_slice/stack_2"
      op: "Const"
      attr {
        key: "_output_shapes"
        value {
          list {
            shape {
              dim {
                size: 1
              }
            }
          }
        }
      }
      attr {
        key: "dtype"
        value {
          type: DT_INT32
        }
      }
      attr {
        key: "value"
        value {
          tensor {
            dtype: DT_INT32
            tensor_shape {
              dim {
                size: 1
              }
            }
            int_val: 1
          }
        }
      }
    }
    node {
      name: "strided_slice"
      op: "StridedSlice"
      input: "Shape"
      input: "strided_slice/stack"
      input: "strided_slice/stack_1"
      input: "strided_slice/stack_2"
      attr {
        key: "Index"
        value {
          type: DT_INT32
        }
      }
      attr {
        key: "T"
        value {
          type: DT_INT32
        }
      }
      attr {
        key: "_output_shapes"
        value {
          list {
            shape {
            }
          }
        }
      }
      attr {
        key: "begin_mask"
        value {
          i: 0
        }
      }
      attr {
        key: "ellipsis_mask"
        value {
          i: 0
        }
      }
      attr {
        key: "end_mask"
        value {
          i: 0
        }
      }
      attr {
        key: "new_axis_mask"
        value {
          i: 0
        }
      }
      attr {
        key: "shrink_axis_mask"
        value {
          i: 1
        }
      }
    }
    node {
      name: "strided_slice_1/stack"
      op: "Const"
      attr {
        key: "_output_shapes"
        value {
          list {
            shape {
              dim {
                size: 1
              }
            }
          }
        }
      }
      attr {
        key: "dtype"
        value {
          type: DT_INT32
        }
      }
      attr {
        key: "value"
        value {
          tensor {
            dtype: DT_INT32
            tensor_shape {
              dim {
                size: 1
              }
            }
            int_val: 1
          }
        }
      }
    }
    node {
      name: "strided_slice_1/stack_1"
      op: "Const"
      attr {
        key: "_output_shapes"
        value {
          list {
            shape {
              dim {
                size: 1
              }
            }
          }
        }
      }
      attr {
        key: "dtype"
        value {
          type: DT_INT32
        }
      }
      attr {
        key: "value"
        value {
          tensor {
            dtype: DT_INT32
            tensor_shape {
              dim {
                size: 1
              }
            }
            int_val: 2
          }
        }
      }
    }
    node {
      name: "strided_slice_1/stack_2"
      op: "Const"
      attr {
        key: "_output_shapes"
        value {
          list {
            shape {
              dim {
                size: 1
              }
            }
          }
        }
      }
      attr {
        key: "dtype"
        value {
          type: DT_INT32
        }
      }
      attr {
        key: "value"
        value {
          tensor {
            dtype: DT_INT32
            tensor_shape {
              dim {
                size: 1
              }
            }
            int_val: 1
          }
        }
      }
    }
    node {
      name: "strided_slice_1"
      op: "StridedSlice"
      input: "Shape"
      input: "strided_slice_1/stack"
      input: "strided_slice_1/stack_1"
      input: "strided_slice_1/stack_2"
      attr {
        key: "Index"
        value {
          type: DT_INT32
        }
      }
      attr {
        key: "T"
        value {
          type: DT_INT32
        }
      }
      attr {
        key: "_output_shapes"
        value {
          list {
            shape {
            }
          }
        }
      }
      attr {
        key: "begin_mask"
        value {
          i: 0
        }
      }
      attr {
        key: "ellipsis_mask"
        value {
          i: 0
        }
      }
      attr {
        key: "end_mask"
        value {
          i: 0
        }
      }
      attr {
        key: "new_axis_mask"
        value {
          i: 0
        }
      }
      attr {
        key: "shrink_axis_mask"
        value {
          i: 1
        }
      }
    }
    node {
      name: "Rank"
      op: "Const"
      attr {
        key: "_output_shapes"
        value {
          list {
            shape {
            }
          }
        }
      }
      attr {
        key: "dtype"
        value {
          type: DT_INT32
        }
      }
      attr {
        key: "value"
        value {
          tensor {
            dtype: DT_INT32
            tensor_shape {
            }
            int_val: 3
          }
        }
      }
    }
    node {
      name: "range/start"
      op: "Const"
      attr {
        key: "_output_shapes"
        value {
          list {
            shape {
            }
          }
        }
      }
      attr {
        key: "dtype"
        value {
          type: DT_INT32
        }
      }
      attr {
        key: "value"
        value {
          tensor {
            dtype: DT_INT32
            tensor_shape {
            }
            int_val: 2
          }
        }
      }
    }
    node {
      name: "range/delta"
      op: "Const"
      attr {
        key: "_output_shapes"
        value {
          list {
            shape {
            }
          }
        }
      }
      attr {
        key: "dtype"
        value {
          type: DT_INT32
        }
      }
      attr {
        key: "value"
        value {
          tensor {
            dtype: DT_INT32
            tensor_shape {
            }
            int_val: 1
          }
        }
      }
    }
    node {
      name: "range"
      op: "Range"
      input: "range/start"
      input: "Rank"
      input: "range/delta"
      attr {
        key: "Tidx"
        value {
          type: DT_INT32
        }
      }
      attr {
        key: "_output_shapes"
        value {
          list {
            shape {
              dim {
                size: 1
              }
            }
          }
        }
      }
    }
    node {
      name: "concat/values_0"
      op: "Const"
      attr {
        key: "_output_shapes"
        value {
          list {
            shape {
              dim {
                size: 2
              }
            }
          }
        }
      }
      attr {
        key: "dtype"
        value {
          type: DT_INT32
        }
      }
      attr {
        key: "value"
        value {
          tensor {
            dtype: DT_INT32
            tensor_shape {
              dim {
                size: 2
              }
            }
            tensor_content: "\001\000\000\000\000\000\000\000"
          }
        }
      }
    }
    node {
      name: "concat/axis"
      op: "Const"
      attr {
        key: "_output_shapes"
        value {
          list {
            shape {
            }
          }
        }
      }
      attr {
        key: "dtype"
        value {
          type: DT_INT32
        }
      }
      attr {
        key: "value"
        value {
          tensor {
            dtype: DT_INT32
            tensor_shape {
            }
            int_val: 0
          }
        }
      }
    }
    node {
      name: "concat"
      op: "ConcatV2"
      input: "concat/values_0"
      input: "range"
      input: "concat/axis"
      attr {
        key: "N"
        value {
          i: 2
        }
      }
      attr {
        key: "T"
        value {
          type: DT_INT32
        }
      }
      attr {
        key: "Tidx"
        value {
          type: DT_INT32
        }
      }
      attr {
        key: "_output_shapes"
        value {
          list {
            shape {
              dim {
                size: 3
              }
            }
          }
        }
      }
    }
    node {
      name: "transpose"
      op: "Transpose"
      input: "input_x"
      input: "concat"
      attr {
        key: "T"
        value {
          type: DT_FLOAT
        }
      }
      attr {
        key: "Tperm"
        value {
          type: DT_INT32
        }
      }
      attr {
        key: "_output_shapes"
        value {
          list {
            shape {
              dim {
                size: 1
              }
              dim {
                size: -1
              }
              dim {
                size: 41
              }
            }
          }
        }
      }
    }
    node {
      name: "sequence_length"
      op: "Identity"
      input: "Placeholder_3"
      attr {
        key: "T"
        value {
          type: DT_INT32
        }
      }
      attr {
        key: "_output_shapes"
        value {
          list {
            shape {
              dim {
                size: -1
              }
            }
          }
        }
      }
    }
    node {
      name: "rnn/Shape"
      op: "Shape"
      input: "transpose"
      attr {
        key: "T"
        value {
          type: DT_FLOAT
        }
      }
      attr {
        key: "_output_shapes"
        value {
          list {
            shape {
              dim {
                size: 3
              }
            }
          }
        }
      }
      attr {
        key: "out_type"
        value {
          type: DT_INT32
        }
      }
    }
    node {
      name: "rnn/strided_slice/stack"
      op: "Const"
      attr {
        key: "_output_shapes"
        value {
          list {
            shape {
              dim {
                size: 1
              }
            }
          }
        }
      }
      attr {
        key: "dtype"
        value {
          type: DT_INT32
        }
      }
      attr {
        key: "value"
        value {
          tensor {
            dtype: DT_INT32
            tensor_shape {
              dim {
                size: 1
              }
            }
            int_val: 1
          }
        }
      }
    }
    node {
      name: "rnn/strided_slice/stack_1"
      op: "Const"
      attr {
        key: "_output_shapes"
        value {
          list {
            shape {
              dim {
                size: 1
              }
            }
          }
        }
      }
      attr {
        key: "dtype"
        value {
          type: DT_INT32
        }
      }
      attr {
        key: "value"
        value {
          tensor {
            dtype: DT_INT32
            tensor_shape {
              dim {
                size: 1
              }
            }
            int_val: 2
          }
        }
      }
    }
    node {
      name: "rnn/strided_slice/stack_2"
      op: "Const"
      attr {
        key: "_output_shapes"
        value {
          list {
            shape {
              dim {
                size: 1
              }
            }
          }
        }
      }
      attr {
        key: "dtype"
        value {
          type: DT_INT32
        }
      }
      attr {
        key: "value"
        value {
          tensor {
            dtype: DT_INT32
            tensor_shape {
              dim {
                size: 1
              }
            }
            int_val: 1
          }
        }
      }
    }
    node {
      name: "rnn/strided_slice"
      op: "StridedSlice"
      input: "rnn/Shape"
      input: "rnn/strided_slice/stack"
      input: "rnn/strided_slice/stack_1"
      input: "rnn/strided_slice/stack_2"
      attr {
        key: "Index"
        value {
          type: DT_INT32
        }
      }
      attr {
        key: "T"
        value {
          type: DT_INT32
        }
      }
      attr {
        key: "_output_shapes"
        value {
          list {
            shape {
            }
          }
        }
      }
      attr {
        key: "begin_mask"
        value {
          i: 0
        }
      }
      attr {
        key: "ellipsis_mask"
        value {
          i: 0
        }
      }
      attr {
        key: "end_mask"
        value {
          i: 0
        }
      }
      attr {
        key: "new_axis_mask"
        value {
          i: 0
        }
      }
      attr {
        key: "shrink_axis_mask"
        value {
          i: 1
        }
      }
    }
    node {
      name: "rnn/MultiRNNCellZeroState/LSTMCellZeroState/ExpandDims/dim"
      op: "Const"
      attr {
        key: "_output_shapes"
        value {
          list {
            shape {
            }
          }
        }
      }
      attr {
        key: "dtype"
        value {
          type: DT_INT32
        }
      }
      attr {
        key: "value"
        value {
          tensor {
            dtype: DT_INT32
            tensor_shape {
            }
            int_val: 0
          }
        }
      }
    }
    node {
      name: "rnn/MultiRNNCellZeroState/LSTMCellZeroState/ExpandDims"
      op: "ExpandDims"
      input: "rnn/strided_slice"
      input: "rnn/MultiRNNCellZeroState/LSTMCellZeroState/ExpandDims/dim"
      attr {
        key: "T"
        value {
          type: DT_INT32
        }
      }
      attr {
        key: "Tdim"
        value {
          type: DT_INT32
        }
      }
      attr {
        key: "_output_shapes"
        value {
          list {
            shape {
              dim {
                size: 1
              }
            }
          }
        }
      }
    }
    node {
      name: "rnn/MultiRNNCellZeroState/LSTMCellZeroState/Const"
      op: "Const"
      attr {
        key: "_output_shapes"
        value {
          list {
            shape {
              dim {
                size: 1
              }
            }
          }
        }
      }
      attr {
        key: "dtype"
        value {
          type: DT_INT32
        }
      }
      attr {
        key: "value"
        value {
          tensor {
            dtype: DT_INT32
            tensor_shape {
              dim {
                size: 1
              }
            }
            int_val: 150
          }
        }
      }
    }
    node {
      name: "rnn/MultiRNNCellZeroState/LSTMCellZeroState/concat/axis"
      op: "Const"
      attr {
        key: "_output_shapes"
        value {
          list {
            shape {
            }
          }
        }
      }
      attr {
        key: "dtype"
        value {
          type: DT_INT32
        }
      }
      attr {
        key: "value"
        value {
          tensor {
            dtype: DT_INT32
            tensor_shape {
            }
            int_val: 0
          }
        }
      }
    }
    node {
      name: "rnn/MultiRNNCellZeroState/LSTMCellZeroState/concat"
      op: "ConcatV2"
      input: "rnn/MultiRNNCellZeroState/LSTMCellZeroState/ExpandDims"
      input: "rnn/MultiRNNCellZeroState/LSTMCellZeroState/Const"
      input: "rnn/MultiRNNCellZeroState/LSTMCellZeroState/concat/axis"
      attr {
        key: "N"
        value {
          i: 2
        }
      }
      attr {
        key: "T"
        value {
          type: DT_INT32
        }
      }
      attr {
        key: "Tidx"
        value {
          type: DT_INT32
        }
      }
      attr {
        key: "_output_shapes"
        value {
          list {
            shape {
              dim {
                size: 2
              }
            }
          }
        }
      }
    }
    node {
      name: "rnn/MultiRNNCellZeroState/LSTMCellZeroState/ExpandDims_1/dim"
      op: "Const"
      attr {
        key: "_output_shapes"
        value {
          list {
            shape {
            }
          }
        }
      }
      attr {
        key: "dtype"
        value {
          type: DT_INT32
        }
      }
      attr {
        key: "value"
        value {
          tensor {
            dtype: DT_INT32
            tensor_shape {
            }
            int_val: 0
          }
        }
      }
    }
    node {
      name: "rnn/MultiRNNCellZeroState/LSTMCellZeroState/ExpandDims_1"
      op: "ExpandDims"
      input: "rnn/strided_slice"
      input: "rnn/MultiRNNCellZeroState/LSTMCellZeroState/ExpandDims_1/dim"
      attr {
        key: "T"
        value {
          type: DT_INT32
        }
      }
      attr {
        key: "Tdim"
        value {
          type: DT_INT32
        }
      }
      attr {
        key: "_output_shapes"
        value {
          list {
            shape {
              dim {
                size: 1
              }
            }
          }
        }
      }
    }
    node {
      name: "rnn/MultiRNNCellZeroState/LSTMCellZeroState/Const_1"
      op: "Const"
      attr {
        key: "_output_shapes"
        value {
          list {
            shape {
              dim {
                size: 1
              }
            }
          }
        }
      }
      attr {
        key: "dtype"
        value {
          type: DT_INT32
        }
      }
      attr {
        key: "value"
        value {
          tensor {
            dtype: DT_INT32
            tensor_shape {
              dim {
                size: 1
              }
            }
            int_val: 150
          }
        }
      }
    }
    node {
      name: "rnn/MultiRNNCellZeroState/LSTMCellZeroState/zeros/Const"
      op: "Const"
      attr {
        key: "_output_shapes"
        value {
          list {
            shape {
            }
          }
        }
      }
      attr {
        key: "dtype"
        value {
          type: DT_FLOAT
        }
      }
      attr {
        key: "value"
        value {
          tensor {
            dtype: DT_FLOAT
            tensor_shape {
            }
            float_val: 0.0
          }
        }
      }
    }
    node {
      name: "rnn/MultiRNNCellZeroState/LSTMCellZeroState/zeros"
      op: "Fill"
      input: "rnn/MultiRNNCellZeroState/LSTMCellZeroState/concat"
      input: "rnn/MultiRNNCellZeroState/LSTMCellZeroState/zeros/Const"
      attr {
        key: "T"
        value {
          type: DT_FLOAT
        }
      }
      attr {
        key: "_output_shapes"
        value {
          list {
            shape {
              dim {
                size: -1
              }
              dim {
                size: 150
              }
            }
          }
        }
      }
    }
    node {
      name: "rnn/MultiRNNCellZeroState/LSTMCellZeroState/ExpandDims_2/dim"
      op: "Const"
      attr {
        key: "_output_shapes"
        value {
          list {
            shape {
            }
          }
        }
      }
      attr {
        key: "dtype"
        value {
          type: DT_INT32
        }
      }
      attr {
        key: "value"
        value {
          tensor {
            dtype: DT_INT32
            tensor_shape {
            }
            int_val: 0
          }
        }
      }
    }
    node {
      name: "rnn/MultiRNNCellZeroState/LSTMCellZeroState/ExpandDims_2"
      op: "ExpandDims"
      input: "rnn/strided_slice"
      input: "rnn/MultiRNNCellZeroState/LSTMCellZeroState/ExpandDims_2/dim"
      attr {
        key: "T"
        value {
          type: DT_INT32
        }
      }
      attr {
        key: "Tdim"
        value {
          type: DT_INT32
        }
      }
      attr {
        key: "_output_shapes"
        value {
          list {
            shape {
              dim {
                size: 1
              }
            }
          }
        }
      }
    }
    node {
      name: "rnn/MultiRNNCellZeroState/LSTMCellZeroState/Const_2"
      op: "Const"
      attr {
        key: "_output_shapes"
        value {
          list {
            shape {
              dim {
                size: 1
              }
            }
          }
        }
      }
      attr {
        key: "dtype"
        value {
          type: DT_INT32
        }
      }
      attr {
        key: "value"
        value {
          tensor {
            dtype: DT_INT32
            tensor_shape {
              dim {
                size: 1
              }
            }
            int_val: 150
          }
        }
      }
    }
    node {
      name: "rnn/MultiRNNCellZeroState/LSTMCellZeroState/concat_1/axis"
      op: "Const"
      attr {
        key: "_output_shapes"
        value {
          list {
            shape {
            }
          }
        }
      }
      attr {
        key: "dtype"
        value {
          type: DT_INT32
        }
      }
      attr {
        key: "value"
        value {
          tensor {
            dtype: DT_INT32
            tensor_shape {
            }
            int_val: 0
          }
        }
      }
    }
    node {
      name: "rnn/MultiRNNCellZeroState/LSTMCellZeroState/concat_1"
      op: "ConcatV2"
      input: "rnn/MultiRNNCellZeroState/LSTMCellZeroState/ExpandDims_2"
      input: "rnn/MultiRNNCellZeroState/LSTMCellZeroState/Const_2"
      input: "rnn/MultiRNNCellZeroState/LSTMCellZeroState/concat_1/axis"
      attr {
        key: "N"
        value {
          i: 2
        }
      }
      attr {
        key: "T"
        value {
          type: DT_INT32
        }
      }
      attr {
        key: "Tidx"
        value {
          type: DT_INT32
        }
      }
      attr {
        key: "_output_shapes"
        value {
          list {
            shape {
              dim {
                size: 2
              }
            }
          }
        }
      }
    }
    node {
      name: "rnn/MultiRNNCellZeroState/LSTMCellZeroState/ExpandDims_3/dim"
      op: "Const"
      attr {
        key: "_output_shapes"
        value {
          list {
            shape {
            }
          }
        }
      }
      attr {
        key: "dtype"
        value {
          type: DT_INT32
        }
      }
      attr {
        key: "value"
        value {
          tensor {
            dtype: DT_INT32
            tensor_shape {
            }
            int_val: 0
          }
        }
      }
    }
    node {
      name: "rnn/MultiRNNCellZeroState/LSTMCellZeroState/ExpandDims_3"
      op: "ExpandDims"
      input: "rnn/strided_slice"
      input: "rnn/MultiRNNCellZeroState/LSTMCellZeroState/ExpandDims_3/dim"
      attr {
        key: "T"
        value {
          type: DT_INT32
        }
      }
      attr {
        key: "Tdim"
        value {
          type: DT_INT32
        }
      }
      attr {
        key: "_output_shapes"
        value {
          list {
            shape {
              dim {
                size: 1
              }
            }
          }
        }
      }
    }
    node {
      name: "rnn/MultiRNNCellZeroState/LSTMCellZeroState/Const_3"
      op: "Const"
      attr {
        key: "_output_shapes"
        value {
          list {
            shape {
              dim {
                size: 1
              }
            }
          }
        }
      }
      attr {
        key: "dtype"
        value {
          type: DT_INT32
        }
      }
      attr {
        key: "value"
        value {
          tensor {
            dtype: DT_INT32
            tensor_shape {
              dim {
                size: 1
              }
            }
            int_val: 150
          }
        }
      }
    }
    node {
      name: "rnn/MultiRNNCellZeroState/LSTMCellZeroState/zeros_1/Const"
      op: "Const"
      attr {
        key: "_output_shapes"
        value {
          list {
            shape {
            }
          }
        }
      }
      attr {
        key: "dtype"
        value {
          type: DT_FLOAT
        }
      }
      attr {
        key: "value"
        value {
          tensor {
            dtype: DT_FLOAT
            tensor_shape {
            }
            float_val: 0.0
          }
        }
      }
    }
    node {
      name: "rnn/MultiRNNCellZeroState/LSTMCellZeroState/zeros_1"
      op: "Fill"
      input: "rnn/MultiRNNCellZeroState/LSTMCellZeroState/concat_1"
      input: "rnn/MultiRNNCellZeroState/LSTMCellZeroState/zeros_1/Const"
      attr {
        key: "T"
        value {
          type: DT_FLOAT
        }
      }
      attr {
        key: "_output_shapes"
        value {
          list {
            shape {
              dim {
                size: -1
              }
              dim {
                size: 150
              }
            }
          }
        }
      }
    }
    node {
      name: "rnn/MultiRNNCellZeroState/LSTMCellZeroState_1/ExpandDims/dim"
      op: "Const"
      attr {
        key: "_output_shapes"
        value {
          list {
            shape {
            }
          }
        }
      }
      attr {
        key: "dtype"
        value {
          type: DT_INT32
        }
      }
      attr {
        key: "value"
        value {
          tensor {
            dtype: DT_INT32
            tensor_shape {
            }
            int_val: 0
          }
        }
      }
    }
    node {
      name: "rnn/MultiRNNCellZeroState/LSTMCellZeroState_1/ExpandDims"
      op: "ExpandDims"
      input: "rnn/strided_slice"
      input: "rnn/MultiRNNCellZeroState/LSTMCellZeroState_1/ExpandDims/dim"
      attr {
        key: "T"
        value {
          type: DT_INT32
        }
      }
      attr {
        key: "Tdim"
        value {
          type: DT_INT32
        }
      }
      attr {
        key: "_output_shapes"
        value {
          list {
            shape {
              dim {
                size: 1
              }
            }
          }
        }
      }
    }
    node {
      name: "rnn/MultiRNNCellZeroState/LSTMCellZeroState_1/Const"
      op: "Const"
      attr {
        key: "_output_shapes"
        value {
          list {
            shape {
              dim {
                size: 1
              }
            }
          }
        }
      }
      attr {
        key: "dtype"
        value {
          type: DT_INT32
        }
      }
      attr {
        key: "value"
        value {
          tensor {
            dtype: DT_INT32
            tensor_shape {
              dim {
                size: 1
              }
            }
            int_val: 150
          }
        }
      }
    }
    node {
      name: "rnn/MultiRNNCellZeroState/LSTMCellZeroState_1/concat/axis"
      op: "Const"
      attr {
        key: "_output_shapes"
        value {
          list {
            shape {
            }
          }
        }
      }
      attr {
        key: "dtype"
        value {
          type: DT_INT32
        }
      }
      attr {
        key: "value"
        value {
          tensor {
            dtype: DT_INT32
            tensor_shape {
            }
            int_val: 0
          }
        }
      }
    }
    node {
      name: "rnn/MultiRNNCellZeroState/LSTMCellZeroState_1/concat"
      op: "ConcatV2"
      input: "rnn/MultiRNNCellZeroState/LSTMCellZeroState_1/ExpandDims"
      input: "rnn/MultiRNNCellZeroState/LSTMCellZeroState_1/Const"
      input: "rnn/MultiRNNCellZeroState/LSTMCellZeroState_1/concat/axis"
      attr {
        key: "N"
        value {
          i: 2
        }
      }
      attr {
        key: "T"
        value {
          type: DT_INT32
        }
      }
      attr {
        key: "Tidx"
        value {
          type: DT_INT32
        }
      }
      attr {
        key: "_output_shapes"
        value {
          list {
            shape {
              dim {
                size: 2
              }
            }
          }
        }
      }
    }
    node {
      name: "rnn/MultiRNNCellZeroState/LSTMCellZeroState_1/ExpandDims_1/dim"
      op: "Const"
      attr {
        key: "_output_shapes"
        value {
          list {
            shape {
            }
          }
        }
      }
      attr {
        key: "dtype"
        value {
          type: DT_INT32
        }
      }
      attr {
        key: "value"
        value {
          tensor {
            dtype: DT_INT32
            tensor_shape {
            }
            int_val: 0
          }
        }
      }
    }
    node {
      name: "rnn/MultiRNNCellZeroState/LSTMCellZeroState_1/ExpandDims_1"
      op: "ExpandDims"
      input: "rnn/strided_slice"
      input: "rnn/MultiRNNCellZeroState/LSTMCellZeroState_1/ExpandDims_1/dim"
      attr {
        key: "T"
        value {
          type: DT_INT32
        }
      }
      attr {
        key: "Tdim"
        value {
          type: DT_INT32
        }
      }
      attr {
        key: "_output_shapes"
        value {
          list {
            shape {
              dim {
                size: 1
              }
            }
          }
        }
      }
    }
    node {
      name: "rnn/MultiRNNCellZeroState/LSTMCellZeroState_1/Const_1"
      op: "Const"
      attr {
        key: "_output_shapes"
        value {
          list {
            shape {
              dim {
                size: 1
              }
            }
          }
        }
      }
      attr {
        key: "dtype"
        value {
          type: DT_INT32
        }
      }
      attr {
        key: "value"
        value {
          tensor {
            dtype: DT_INT32
            tensor_shape {
              dim {
                size: 1
              }
            }
            int_val: 150
          }
        }
      }
    }
    node {
      name: "rnn/MultiRNNCellZeroState/LSTMCellZeroState_1/zeros/Const"
      op: "Const"
      attr {
        key: "_output_shapes"
        value {
          list {
            shape {
            }
          }
        }
      }
      attr {
        key: "dtype"
        value {
          type: DT_FLOAT
        }
      }
      attr {
        key: "value"
        value {
          tensor {
            dtype: DT_FLOAT
            tensor_shape {
            }
            float_val: 0.0
          }
        }
      }
    }
    node {
      name: "rnn/MultiRNNCellZeroState/LSTMCellZeroState_1/zeros"
      op: "Fill"
      input: "rnn/MultiRNNCellZeroState/LSTMCellZeroState_1/concat"
      input: "rnn/MultiRNNCellZeroState/LSTMCellZeroState_1/zeros/Const"
      attr {
        key: "T"
        value {
          type: DT_FLOAT
        }
      }
      attr {
        key: "_output_shapes"
        value {
          list {
            shape {
              dim {
                size: -1
              }
              dim {
                size: 150
              }
            }
          }
        }
      }
    }
    node {
      name: "rnn/MultiRNNCellZeroState/LSTMCellZeroState_1/ExpandDims_2/dim"
      op: "Const"
      attr {
        key: "_output_shapes"
        value {
          list {
            shape {
            }
          }
        }
      }
      attr {
        key: "dtype"
        value {
          type: DT_INT32
        }
      }
      attr {
        key: "value"
        value {
          tensor {
            dtype: DT_INT32
            tensor_shape {
            }
            int_val: 0
          }
        }
      }
    }
    node {
      name: "rnn/MultiRNNCellZeroState/LSTMCellZeroState_1/ExpandDims_2"
      op: "ExpandDims"
      input: "rnn/strided_slice"
      input: "rnn/MultiRNNCellZeroState/LSTMCellZeroState_1/ExpandDims_2/dim"
      attr {
        key: "T"
        value {
          type: DT_INT32
        }
      }
      attr {
        key: "Tdim"
        value {
          type: DT_INT32
        }
      }
      attr {
        key: "_output_shapes"
        value {
          list {
            shape {
              dim {
                size: 1
              }
            }
          }
        }
      }
    }
    node {
      name: "rnn/MultiRNNCellZeroState/LSTMCellZeroState_1/Const_2"
      op: "Const"
      attr {
        key: "_output_shapes"
        value {
          list {
            shape {
              dim {
                size: 1
              }
            }
          }
        }
      }
      attr {
        key: "dtype"
        value {
          type: DT_INT32
        }
      }
      attr {
        key: "value"
        value {
          tensor {
            dtype: DT_INT32
            tensor_shape {
              dim {
                size: 1
              }
            }
            int_val: 150
          }
        }
      }
    }
    node {
      name: "rnn/MultiRNNCellZeroState/LSTMCellZeroState_1/concat_1/axis"
      op: "Const"
      attr {
        key: "_output_shapes"
        value {
          list {
            shape {
            }
          }
        }
      }
      attr {
        key: "dtype"
        value {
          type: DT_INT32
        }
      }
      attr {
        key: "value"
        value {
          tensor {
            dtype: DT_INT32
            tensor_shape {
            }
            int_val: 0
          }
        }
      }
    }
    node {
      name: "rnn/MultiRNNCellZeroState/LSTMCellZeroState_1/concat_1"
      op: "ConcatV2"
      input: "rnn/MultiRNNCellZeroState/LSTMCellZeroState_1/ExpandDims_2"
      input: "rnn/MultiRNNCellZeroState/LSTMCellZeroState_1/Const_2"
      input: "rnn/MultiRNNCellZeroState/LSTMCellZeroState_1/concat_1/axis"
      attr {
        key: "N"
        value {
          i: 2
        }
      }
      attr {
        key: "T"
        value {
          type: DT_INT32
        }
      }
      attr {
        key: "Tidx"
        value {
          type: DT_INT32
        }
      }
      attr {
        key: "_output_shapes"
        value {
          list {
            shape {
              dim {
                size: 2
              }
            }
          }
        }
      }
    }
    node {
      name: "rnn/MultiRNNCellZeroState/LSTMCellZeroState_1/ExpandDims_3/dim"
      op: "Const"
      attr {
        key: "_output_shapes"
        value {
          list {
            shape {
            }
          }
        }
      }
      attr {
        key: "dtype"
        value {
          type: DT_INT32
        }
      }
      attr {
        key: "value"
        value {
          tensor {
            dtype: DT_INT32
            tensor_shape {
            }
            int_val: 0
          }
        }
      }
    }
    node {
      name: "rnn/MultiRNNCellZeroState/LSTMCellZeroState_1/ExpandDims_3"
      op: "ExpandDims"
      input: "rnn/strided_slice"
      input: "rnn/MultiRNNCellZeroState/LSTMCellZeroState_1/ExpandDims_3/dim"
      attr {
        key: "T"
        value {
          type: DT_INT32
        }
      }
      attr {
        key: "Tdim"
        value {
          type: DT_INT32
        }
      }
      attr {
        key: "_output_shapes"
        value {
          list {
            shape {
              dim {
                size: 1
              }
            }
          }
        }
      }
    }
    node {
      name: "rnn/MultiRNNCellZeroState/LSTMCellZeroState_1/Const_3"
      op: "Const"
      attr {
        key: "_output_shapes"
        value {
          list {
            shape {
              dim {
                size: 1
              }
            }
          }
        }
      }
      attr {
        key: "dtype"
        value {
          type: DT_INT32
        }
      }
      attr {
        key: "value"
        value {
          tensor {
            dtype: DT_INT32
            tensor_shape {
              dim {
                size: 1
              }
            }
            int_val: 150
          }
        }
      }
    }
    node {
      name: "rnn/MultiRNNCellZeroState/LSTMCellZeroState_1/zeros_1/Const"
      op: "Const"
      attr {
        key: "_output_shapes"
        value {
          list {
            shape {
            }
          }
        }
      }
      attr {
        key: "dtype"
        value {
          type: DT_FLOAT
        }
      }
      attr {
        key: "value"
        value {
          tensor {
            dtype: DT_FLOAT
            tensor_shape {
            }
            float_val: 0.0
          }
        }
      }
    }
    node {
      name: "rnn/MultiRNNCellZeroState/LSTMCellZeroState_1/zeros_1"
      op: "Fill"
      input: "rnn/MultiRNNCellZeroState/LSTMCellZeroState_1/concat_1"
      input: "rnn/MultiRNNCellZeroState/LSTMCellZeroState_1/zeros_1/Const"
      attr {
        key: "T"
        value {
          type: DT_FLOAT
        }
      }
      attr {
        key: "_output_shapes"
        value {
          list {
            shape {
              dim {
                size: -1
              }
              dim {
                size: 150
              }
            }
          }
        }
      }
    }
    node {
      name: "rnn/MultiRNNCellZeroState/LSTMCellZeroState_2/ExpandDims/dim"
      op: "Const"
      attr {
        key: "_output_shapes"
        value {
          list {
            shape {
            }
          }
        }
      }
      attr {
        key: "dtype"
        value {
          type: DT_INT32
        }
      }
      attr {
        key: "value"
        value {
          tensor {
            dtype: DT_INT32
            tensor_shape {
            }
            int_val: 0
          }
        }
      }
    }
    node {
      name: "rnn/MultiRNNCellZeroState/LSTMCellZeroState_2/ExpandDims"
      op: "ExpandDims"
      input: "rnn/strided_slice"
      input: "rnn/MultiRNNCellZeroState/LSTMCellZeroState_2/ExpandDims/dim"
      attr {
        key: "T"
        value {
          type: DT_INT32
        }
      }
      attr {
        key: "Tdim"
        value {
          type: DT_INT32
        }
      }
      attr {
        key: "_output_shapes"
        value {
          list {
            shape {
              dim {
                size: 1
              }
            }
          }
        }
      }
    }
    node {
      name: "rnn/MultiRNNCellZeroState/LSTMCellZeroState_2/Const"
      op: "Const"
      attr {
        key: "_output_shapes"
        value {
          list {
            shape {
              dim {
                size: 1
              }
            }
          }
        }
      }
      attr {
        key: "dtype"
        value {
          type: DT_INT32
        }
      }
      attr {
        key: "value"
        value {
          tensor {
            dtype: DT_INT32
            tensor_shape {
              dim {
                size: 1
              }
            }
            int_val: 150
          }
        }
      }
    }
    node {
      name: "rnn/MultiRNNCellZeroState/LSTMCellZeroState_2/concat/axis"
      op: "Const"
      attr {
        key: "_output_shapes"
        value {
          list {
            shape {
            }
          }
        }
      }
      attr {
        key: "dtype"
        value {
          type: DT_INT32
        }
      }
      attr {
        key: "value"
        value {
          tensor {
            dtype: DT_INT32
            tensor_shape {
            }
            int_val: 0
          }
        }
      }
    }
    node {
      name: "rnn/MultiRNNCellZeroState/LSTMCellZeroState_2/concat"
      op: "ConcatV2"
      input: "rnn/MultiRNNCellZeroState/LSTMCellZeroState_2/ExpandDims"
      input: "rnn/MultiRNNCellZeroState/LSTMCellZeroState_2/Const"
      input: "rnn/MultiRNNCellZeroState/LSTMCellZeroState_2/concat/axis"
      attr {
        key: "N"
        value {
          i: 2
        }
      }
      attr {
        key: "T"
        value {
          type: DT_INT32
        }
      }
      attr {
        key: "Tidx"
        value {
          type: DT_INT32
        }
      }
      attr {
        key: "_output_shapes"
        value {
          list {
            shape {
              dim {
                size: 2
              }
            }
          }
        }
      }
    }
    node {
      name: "rnn/MultiRNNCellZeroState/LSTMCellZeroState_2/ExpandDims_1/dim"
      op: "Const"
      attr {
        key: "_output_shapes"
        value {
          list {
            shape {
            }
          }
        }
      }
      attr {
        key: "dtype"
        value {
          type: DT_INT32
        }
      }
      attr {
        key: "value"
        value {
          tensor {
            dtype: DT_INT32
            tensor_shape {
            }
            int_val: 0
          }
        }
      }
    }
    node {
      name: "rnn/MultiRNNCellZeroState/LSTMCellZeroState_2/ExpandDims_1"
      op: "ExpandDims"
      input: "rnn/strided_slice"
      input: "rnn/MultiRNNCellZeroState/LSTMCellZeroState_2/ExpandDims_1/dim"
      attr {
        key: "T"
        value {
          type: DT_INT32
        }
      }
      attr {
        key: "Tdim"
        value {
          type: DT_INT32
        }
      }
      attr {
        key: "_output_shapes"
        value {
          list {
            shape {
              dim {
                size: 1
              }
            }
          }
        }
      }
    }
    node {
      name: "rnn/MultiRNNCellZeroState/LSTMCellZeroState_2/Const_1"
      op: "Const"
      attr {
        key: "_output_shapes"
        value {
          list {
            shape {
              dim {
                size: 1
              }
            }
          }
        }
      }
      attr {
        key: "dtype"
        value {
          type: DT_INT32
        }
      }
      attr {
        key: "value"
        value {
          tensor {
            dtype: DT_INT32
            tensor_shape {
              dim {
                size: 1
              }
            }
            int_val: 150
          }
        }
      }
    }
    node {
      name: "rnn/MultiRNNCellZeroState/LSTMCellZeroState_2/zeros/Const"
      op: "Const"
      attr {
        key: "_output_shapes"
        value {
          list {
            shape {
            }
          }
        }
      }
      attr {
        key: "dtype"
        value {
          type: DT_FLOAT
        }
      }
      attr {
        key: "value"
        value {
          tensor {
            dtype: DT_FLOAT
            tensor_shape {
            }
            float_val: 0.0
          }
        }
      }
    }
    node {
      name: "rnn/MultiRNNCellZeroState/LSTMCellZeroState_2/zeros"
      op: "Fill"
      input: "rnn/MultiRNNCellZeroState/LSTMCellZeroState_2/concat"
      input: "rnn/MultiRNNCellZeroState/LSTMCellZeroState_2/zeros/Const"
      attr {
        key: "T"
        value {
          type: DT_FLOAT
        }
      }
      attr {
        key: "_output_shapes"
        value {
          list {
            shape {
              dim {
                size: -1
              }
              dim {
                size: 150
              }
            }
          }
        }
      }
    }
    node {
      name: "rnn/MultiRNNCellZeroState/LSTMCellZeroState_2/ExpandDims_2/dim"
      op: "Const"
      attr {
        key: "_output_shapes"
        value {
          list {
            shape {
            }
          }
        }
      }
      attr {
        key: "dtype"
        value {
          type: DT_INT32
        }
      }
      attr {
        key: "value"
        value {
          tensor {
            dtype: DT_INT32
            tensor_shape {
            }
            int_val: 0
          }
        }
      }
    }
    node {
      name: "rnn/MultiRNNCellZeroState/LSTMCellZeroState_2/ExpandDims_2"
      op: "ExpandDims"
      input: "rnn/strided_slice"
      input: "rnn/MultiRNNCellZeroState/LSTMCellZeroState_2/ExpandDims_2/dim"
      attr {
        key: "T"
        value {
          type: DT_INT32
        }
      }
      attr {
        key: "Tdim"
        value {
          type: DT_INT32
        }
      }
      attr {
        key: "_output_shapes"
        value {
          list {
            shape {
              dim {
                size: 1
              }
            }
          }
        }
      }
    }
    node {
      name: "rnn/MultiRNNCellZeroState/LSTMCellZeroState_2/Const_2"
      op: "Const"
      attr {
        key: "_output_shapes"
        value {
          list {
            shape {
              dim {
                size: 1
              }
            }
          }
        }
      }
      attr {
        key: "dtype"
        value {
          type: DT_INT32
        }
      }
      attr {
        key: "value"
        value {
          tensor {
            dtype: DT_INT32
            tensor_shape {
              dim {
                size: 1
              }
            }
            int_val: 150
          }
        }
      }
    }
    node {
      name: "rnn/MultiRNNCellZeroState/LSTMCellZeroState_2/concat_1/axis"
      op: "Const"
      attr {
        key: "_output_shapes"
        value {
          list {
            shape {
            }
          }
        }
      }
      attr {
        key: "dtype"
        value {
          type: DT_INT32
        }
      }
      attr {
        key: "value"
        value {
          tensor {
            dtype: DT_INT32
            tensor_shape {
            }
            int_val: 0
          }
        }
      }
    }
    node {
      name: "rnn/MultiRNNCellZeroState/LSTMCellZeroState_2/concat_1"
      op: "ConcatV2"
      input: "rnn/MultiRNNCellZeroState/LSTMCellZeroState_2/ExpandDims_2"
      input: "rnn/MultiRNNCellZeroState/LSTMCellZeroState_2/Const_2"
      input: "rnn/MultiRNNCellZeroState/LSTMCellZeroState_2/concat_1/axis"
      attr {
        key: "N"
        value {
          i: 2
        }
      }
      attr {
        key: "T"
        value {
          type: DT_INT32
        }
      }
      attr {
        key: "Tidx"
        value {
          type: DT_INT32
        }
      }
      attr {
        key: "_output_shapes"
        value {
          list {
            shape {
              dim {
                size: 2
              }
            }
          }
        }
      }
    }
    node {
      name: "rnn/MultiRNNCellZeroState/LSTMCellZeroState_2/ExpandDims_3/dim"
      op: "Const"
      attr {
        key: "_output_shapes"
        value {
          list {
            shape {
            }
          }
        }
      }
      attr {
        key: "dtype"
        value {
          type: DT_INT32
        }
      }
      attr {
        key: "value"
        value {
          tensor {
            dtype: DT_INT32
            tensor_shape {
            }
            int_val: 0
          }
        }
      }
    }
    node {
      name: "rnn/MultiRNNCellZeroState/LSTMCellZeroState_2/ExpandDims_3"
      op: "ExpandDims"
      input: "rnn/strided_slice"
      input: "rnn/MultiRNNCellZeroState/LSTMCellZeroState_2/ExpandDims_3/dim"
      attr {
        key: "T"
        value {
          type: DT_INT32
        }
      }
      attr {
        key: "Tdim"
        value {
          type: DT_INT32
        }
      }
      attr {
        key: "_output_shapes"
        value {
          list {
            shape {
              dim {
                size: 1
              }
            }
          }
        }
      }
    }
    node {
      name: "rnn/MultiRNNCellZeroState/LSTMCellZeroState_2/Const_3"
      op: "Const"
      attr {
        key: "_output_shapes"
        value {
          list {
            shape {
              dim {
                size: 1
              }
            }
          }
        }
      }
      attr {
        key: "dtype"
        value {
          type: DT_INT32
        }
      }
      attr {
        key: "value"
        value {
          tensor {
            dtype: DT_INT32
            tensor_shape {
              dim {
                size: 1
              }
            }
            int_val: 150
          }
        }
      }
    }
    node {
      name: "rnn/MultiRNNCellZeroState/LSTMCellZeroState_2/zeros_1/Const"
      op: "Const"
      attr {
        key: "_output_shapes"
        value {
          list {
            shape {
            }
          }
        }
      }
      attr {
        key: "dtype"
        value {
          type: DT_FLOAT
        }
      }
      attr {
        key: "value"
        value {
          tensor {
            dtype: DT_FLOAT
            tensor_shape {
            }
            float_val: 0.0
          }
        }
      }
    }
    node {
      name: "rnn/MultiRNNCellZeroState/LSTMCellZeroState_2/zeros_1"
      op: "Fill"
      input: "rnn/MultiRNNCellZeroState/LSTMCellZeroState_2/concat_1"
      input: "rnn/MultiRNNCellZeroState/LSTMCellZeroState_2/zeros_1/Const"
      attr {
        key: "T"
        value {
          type: DT_FLOAT
        }
      }
      attr {
        key: "_output_shapes"
        value {
          list {
            shape {
              dim {
                size: -1
              }
              dim {
                size: 150
              }
            }
          }
        }
      }
    }
    node {
      name: "rnn/Shape_1"
      op: "Shape"
      input: "sequence_length"
      attr {
        key: "T"
        value {
          type: DT_INT32
        }
      }
      attr {
        key: "_output_shapes"
        value {
          list {
            shape {
              dim {
                size: 1
              }
            }
          }
        }
      }
      attr {
        key: "out_type"
        value {
          type: DT_INT32
        }
      }
    }
    node {
      name: "rnn/stack"
      op: "Pack"
      input: "rnn/strided_slice"
      attr {
        key: "N"
        value {
          i: 1
        }
      }
      attr {
        key: "T"
        value {
          type: DT_INT32
        }
      }
      attr {
        key: "_output_shapes"
        value {
          list {
            shape {
              dim {
                size: 1
              }
            }
          }
        }
      }
      attr {
        key: "axis"
        value {
          i: 0
        }
      }
    }
    node {
      name: "rnn/Equal"
      op: "Equal"
      input: "rnn/Shape_1"
      input: "rnn/stack"
      attr {
        key: "T"
        value {
          type: DT_INT32
        }
      }
      attr {
        key: "_output_shapes"
        value {
          list {
            shape {
              dim {
                size: 1
              }
            }
          }
        }
      }
    }
    node {
      name: "rnn/Const"
      op: "Const"
      attr {
        key: "_output_shapes"
        value {
          list {
            shape {
              dim {
                size: 1
              }
            }
          }
        }
      }
      attr {
        key: "dtype"
        value {
          type: DT_INT32
        }
      }
      attr {
        key: "value"
        value {
          tensor {
            dtype: DT_INT32
            tensor_shape {
              dim {
                size: 1
              }
            }
            int_val: 0
          }
        }
      }
    }
    node {
      name: "rnn/All"
      op: "All"
      input: "rnn/Equal"
      input: "rnn/Const"
      attr {
        key: "Tidx"
        value {
          type: DT_INT32
        }
      }
      attr {
        key: "_output_shapes"
        value {
          list {
            shape {
            }
          }
        }
      }
      attr {
        key: "keep_dims"
        value {
          b: false
        }
      }
    }
    node {
      name: "rnn/Assert/Const"
      op: "Const"
      attr {
        key: "_output_shapes"
        value {
          list {
            shape {
            }
          }
        }
      }
      attr {
        key: "dtype"
        value {
          type: DT_STRING
        }
      }
      attr {
        key: "value"
        value {
          tensor {
            dtype: DT_STRING
            tensor_shape {
            }
            string_val: "Expected shape for Tensor sequence_length:0 is "
          }
        }
      }
    }
    node {
      name: "rnn/Assert/Const_1"
      op: "Const"
      attr {
        key: "_output_shapes"
        value {
          list {
            shape {
            }
          }
        }
      }
      attr {
        key: "dtype"
        value {
          type: DT_STRING
        }
      }
      attr {
        key: "value"
        value {
          tensor {
            dtype: DT_STRING
            tensor_shape {
            }
            string_val: " but saw shape: "
          }
        }
      }
    }
    node {
      name: "rnn/Assert/Assert/data_0"
      op: "Const"
      attr {
        key: "_output_shapes"
        value {
          list {
            shape {
            }
          }
        }
      }
      attr {
        key: "dtype"
        value {
          type: DT_STRING
        }
      }
      attr {
        key: "value"
        value {
          tensor {
            dtype: DT_STRING
            tensor_shape {
            }
            string_val: "Expected shape for Tensor sequence_length:0 is "
          }
        }
      }
    }
    node {
      name: "rnn/Assert/Assert/data_2"
      op: "Const"
      attr {
        key: "_output_shapes"
        value {
          list {
            shape {
            }
          }
        }
      }
      attr {
        key: "dtype"
        value {
          type: DT_STRING
        }
      }
      attr {
        key: "value"
        value {
          tensor {
            dtype: DT_STRING
            tensor_shape {
            }
            string_val: " but saw shape: "
          }
        }
      }
    }
    node {
      name: "rnn/Assert/Assert"
      op: "Assert"
      input: "rnn/All"
      input: "rnn/Assert/Assert/data_0"
      input: "rnn/stack"
      input: "rnn/Assert/Assert/data_2"
      input: "rnn/Shape_1"
      attr {
        key: "T"
        value {
          list {
            type: DT_STRING
            type: DT_INT32
            type: DT_STRING
            type: DT_INT32
          }
        }
      }
      attr {
        key: "summarize"
        value {
          i: 3
        }
      }
    }
    node {
      name: "rnn/CheckSeqLen"
      op: "Identity"
      input: "sequence_length"
      input: "^rnn/Assert/Assert"
      attr {
        key: "T"
        value {
          type: DT_INT32
        }
      }
      attr {
        key: "_output_shapes"
        value {
          list {
            shape {
              dim {
                size: -1
              }
            }
          }
        }
      }
    }
    node {
      name: "rnn/Shape_2"
      op: "Shape"
      input: "transpose"
      attr {
        key: "T"
        value {
          type: DT_FLOAT
        }
      }
      attr {
        key: "_output_shapes"
        value {
          list {
            shape {
              dim {
                size: 3
              }
            }
          }
        }
      }
      attr {
        key: "out_type"
        value {
          type: DT_INT32
        }
      }
    }
    node {
      name: "rnn/strided_slice_1/stack"
      op: "Const"
      attr {
        key: "_output_shapes"
        value {
          list {
            shape {
              dim {
                size: 1
              }
            }
          }
        }
      }
      attr {
        key: "dtype"
        value {
          type: DT_INT32
        }
      }
      attr {
        key: "value"
        value {
          tensor {
            dtype: DT_INT32
            tensor_shape {
              dim {
                size: 1
              }
            }
            int_val: 0
          }
        }
      }
    }
    node {
      name: "rnn/strided_slice_1/stack_1"
      op: "Const"
      attr {
        key: "_output_shapes"
        value {
          list {
            shape {
              dim {
                size: 1
              }
            }
          }
        }
      }
      attr {
        key: "dtype"
        value {
          type: DT_INT32
        }
      }
      attr {
        key: "value"
        value {
          tensor {
            dtype: DT_INT32
            tensor_shape {
              dim {
                size: 1
              }
            }
            int_val: 1
          }
        }
      }
    }
    node {
      name: "rnn/strided_slice_1/stack_2"
      op: "Const"
      attr {
        key: "_output_shapes"
        value {
          list {
            shape {
              dim {
                size: 1
              }
            }
          }
        }
      }
      attr {
        key: "dtype"
        value {
          type: DT_INT32
        }
      }
      attr {
        key: "value"
        value {
          tensor {
            dtype: DT_INT32
            tensor_shape {
              dim {
                size: 1
              }
            }
            int_val: 1
          }
        }
      }
    }
    node {
      name: "rnn/strided_slice_1"
      op: "StridedSlice"
      input: "rnn/Shape_2"
      input: "rnn/strided_slice_1/stack"
      input: "rnn/strided_slice_1/stack_1"
      input: "rnn/strided_slice_1/stack_2"
      attr {
        key: "Index"
        value {
          type: DT_INT32
        }
      }
      attr {
        key: "T"
        value {
          type: DT_INT32
        }
      }
      attr {
        key: "_output_shapes"
        value {
          list {
            shape {
            }
          }
        }
      }
      attr {
        key: "begin_mask"
        value {
          i: 0
        }
      }
      attr {
        key: "ellipsis_mask"
        value {
          i: 0
        }
      }
      attr {
        key: "end_mask"
        value {
          i: 0
        }
      }
      attr {
        key: "new_axis_mask"
        value {
          i: 0
        }
      }
      attr {
        key: "shrink_axis_mask"
        value {
          i: 1
        }
      }
    }
    node {
      name: "rnn/Shape_3"
      op: "Shape"
      input: "transpose"
      attr {
        key: "T"
        value {
          type: DT_FLOAT
        }
      }
      attr {
        key: "_output_shapes"
        value {
          list {
            shape {
              dim {
                size: 3
              }
            }
          }
        }
      }
      attr {
        key: "out_type"
        value {
          type: DT_INT32
        }
      }
    }
    node {
      name: "rnn/strided_slice_2/stack"
      op: "Const"
      attr {
        key: "_output_shapes"
        value {
          list {
            shape {
              dim {
                size: 1
              }
            }
          }
        }
      }
      attr {
        key: "dtype"
        value {
          type: DT_INT32
        }
      }
      attr {
        key: "value"
        value {
          tensor {
            dtype: DT_INT32
            tensor_shape {
              dim {
                size: 1
              }
            }
            int_val: 1
          }
        }
      }
    }
    node {
      name: "rnn/strided_slice_2/stack_1"
      op: "Const"
      attr {
        key: "_output_shapes"
        value {
          list {
            shape {
              dim {
                size: 1
              }
            }
          }
        }
      }
      attr {
        key: "dtype"
        value {
          type: DT_INT32
        }
      }
      attr {
        key: "value"
        value {
          tensor {
            dtype: DT_INT32
            tensor_shape {
              dim {
                size: 1
              }
            }
            int_val: 2
          }
        }
      }
    }
    node {
      name: "rnn/strided_slice_2/stack_2"
      op: "Const"
      attr {
        key: "_output_shapes"
        value {
          list {
            shape {
              dim {
                size: 1
              }
            }
          }
        }
      }
      attr {
        key: "dtype"
        value {
          type: DT_INT32
        }
      }
      attr {
        key: "value"
        value {
          tensor {
            dtype: DT_INT32
            tensor_shape {
              dim {
                size: 1
              }
            }
            int_val: 1
          }
        }
      }
    }
    node {
      name: "rnn/strided_slice_2"
      op: "StridedSlice"
      input: "rnn/Shape_3"
      input: "rnn/strided_slice_2/stack"
      input: "rnn/strided_slice_2/stack_1"
      input: "rnn/strided_slice_2/stack_2"
      attr {
        key: "Index"
        value {
          type: DT_INT32
        }
      }
      attr {
        key: "T"
        value {
          type: DT_INT32
        }
      }
      attr {
        key: "_output_shapes"
        value {
          list {
            shape {
            }
          }
        }
      }
      attr {
        key: "begin_mask"
        value {
          i: 0
        }
      }
      attr {
        key: "ellipsis_mask"
        value {
          i: 0
        }
      }
      attr {
        key: "end_mask"
        value {
          i: 0
        }
      }
      attr {
        key: "new_axis_mask"
        value {
          i: 0
        }
      }
      attr {
        key: "shrink_axis_mask"
        value {
          i: 1
        }
      }
    }
    node {
      name: "rnn/ExpandDims/dim"
      op: "Const"
      attr {
        key: "_output_shapes"
        value {
          list {
            shape {
            }
          }
        }
      }
      attr {
        key: "dtype"
        value {
          type: DT_INT32
        }
      }
      attr {
        key: "value"
        value {
          tensor {
            dtype: DT_INT32
            tensor_shape {
            }
            int_val: 0
          }
        }
      }
    }
    node {
      name: "rnn/ExpandDims"
      op: "ExpandDims"
      input: "rnn/strided_slice_2"
      input: "rnn/ExpandDims/dim"
      attr {
        key: "T"
        value {
          type: DT_INT32
        }
      }
      attr {
        key: "Tdim"
        value {
          type: DT_INT32
        }
      }
      attr {
        key: "_output_shapes"
        value {
          list {
            shape {
              dim {
                size: 1
              }
            }
          }
        }
      }
    }
    node {
      name: "rnn/Const_1"
      op: "Const"
      attr {
        key: "_output_shapes"
        value {
          list {
            shape {
              dim {
                size: 1
              }
            }
          }
        }
      }
      attr {
        key: "dtype"
        value {
          type: DT_INT32
        }
      }
      attr {
        key: "value"
        value {
          tensor {
            dtype: DT_INT32
            tensor_shape {
              dim {
                size: 1
              }
            }
            int_val: 150
          }
        }
      }
    }
    node {
      name: "rnn/concat/axis"
      op: "Const"
      attr {
        key: "_output_shapes"
        value {
          list {
            shape {
            }
          }
        }
      }
      attr {
        key: "dtype"
        value {
          type: DT_INT32
        }
      }
      attr {
        key: "value"
        value {
          tensor {
            dtype: DT_INT32
            tensor_shape {
            }
            int_val: 0
          }
        }
      }
    }
    node {
      name: "rnn/concat"
      op: "ConcatV2"
      input: "rnn/ExpandDims"
      input: "rnn/Const_1"
      input: "rnn/concat/axis"
      attr {
        key: "N"
        value {
          i: 2
        }
      }
      attr {
        key: "T"
        value {
          type: DT_INT32
        }
      }
      attr {
        key: "Tidx"
        value {
          type: DT_INT32
        }
      }
      attr {
        key: "_output_shapes"
        value {
          list {
            shape {
              dim {
                size: 2
              }
            }
          }
        }
      }
    }
    node {
      name: "rnn/zeros/Const"
      op: "Const"
      attr {
        key: "_output_shapes"
        value {
          list {
            shape {
            }
          }
        }
      }
      attr {
        key: "dtype"
        value {
          type: DT_FLOAT
        }
      }
      attr {
        key: "value"
        value {
          tensor {
            dtype: DT_FLOAT
            tensor_shape {
            }
            float_val: 0.0
          }
        }
      }
    }
    node {
      name: "rnn/zeros"
      op: "Fill"
      input: "rnn/concat"
      input: "rnn/zeros/Const"
      attr {
        key: "T"
        value {
          type: DT_FLOAT
        }
      }
      attr {
        key: "_output_shapes"
        value {
          list {
            shape {
              dim {
                size: -1
              }
              dim {
                size: 150
              }
            }
          }
        }
      }
    }
    node {
      name: "rnn/Const_2"
      op: "Const"
      attr {
        key: "_output_shapes"
        value {
          list {
            shape {
              dim {
                size: 1
              }
            }
          }
        }
      }
      attr {
        key: "dtype"
        value {
          type: DT_INT32
        }
      }
      attr {
        key: "value"
        value {
          tensor {
            dtype: DT_INT32
            tensor_shape {
              dim {
                size: 1
              }
            }
            int_val: 0
          }
        }
      }
    }
    node {
      name: "rnn/Min"
      op: "Min"
      input: "rnn/CheckSeqLen"
      input: "rnn/Const_2"
      attr {
        key: "T"
        value {
          type: DT_INT32
        }
      }
      attr {
        key: "Tidx"
        value {
          type: DT_INT32
        }
      }
      attr {
        key: "_output_shapes"
        value {
          list {
            shape {
            }
          }
        }
      }
      attr {
        key: "keep_dims"
        value {
          b: false
        }
      }
    }
    node {
      name: "rnn/Const_3"
      op: "Const"
      attr {
        key: "_output_shapes"
        value {
          list {
            shape {
              dim {
                size: 1
              }
            }
          }
        }
      }
      attr {
        key: "dtype"
        value {
          type: DT_INT32
        }
      }
      attr {
        key: "value"
        value {
          tensor {
            dtype: DT_INT32
            tensor_shape {
              dim {
                size: 1
              }
            }
            int_val: 0
          }
        }
      }
    }
    node {
      name: "rnn/Max"
      op: "Max"
      input: "rnn/CheckSeqLen"
      input: "rnn/Const_3"
      attr {
        key: "T"
        value {
          type: DT_INT32
        }
      }
      attr {
        key: "Tidx"
        value {
          type: DT_INT32
        }
      }
      attr {
        key: "_output_shapes"
        value {
          list {
            shape {
            }
          }
        }
      }
      attr {
        key: "keep_dims"
        value {
          b: false
        }
      }
    }
    node {
      name: "rnn/time"
      op: "Const"
      attr {
        key: "_output_shapes"
        value {
          list {
            shape {
            }
          }
        }
      }
      attr {
        key: "dtype"
        value {
          type: DT_INT32
        }
      }
      attr {
        key: "value"
        value {
          tensor {
            dtype: DT_INT32
            tensor_shape {
            }
            int_val: 0
          }
        }
      }
    }
    node {
      name: "rnn/TensorArray"
      op: "TensorArrayV3"
      input: "rnn/strided_slice_1"
      attr {
        key: "_output_shapes"
        value {
          list {
            shape {
              dim {
                size: 2
              }
            }
            shape {
            }
          }
        }
      }
      attr {
        key: "clear_after_read"
        value {
          b: true
        }
      }
      attr {
        key: "dtype"
        value {
          type: DT_FLOAT
        }
      }
      attr {
        key: "dynamic_size"
        value {
          b: false
        }
      }
      attr {
        key: "element_shape"
        value {
          shape {
            unknown_rank: true
          }
        }
      }
      attr {
        key: "tensor_array_name"
        value {
          s: "rnn/dynamic_rnn/output_0"
        }
      }
    }
    node {
      name: "rnn/TensorArray_1"
      op: "TensorArrayV3"
      input: "rnn/strided_slice_1"
      attr {
        key: "_output_shapes"
        value {
          list {
            shape {
              dim {
                size: 2
              }
            }
            shape {
            }
          }
        }
      }
      attr {
        key: "clear_after_read"
        value {
          b: true
        }
      }
      attr {
        key: "dtype"
        value {
          type: DT_FLOAT
        }
      }
      attr {
        key: "dynamic_size"
        value {
          b: false
        }
      }
      attr {
        key: "element_shape"
        value {
          shape {
            unknown_rank: true
          }
        }
      }
      attr {
        key: "tensor_array_name"
        value {
          s: "rnn/dynamic_rnn/input_0"
        }
      }
    }
    node {
      name: "rnn/TensorArrayUnstack/Shape"
      op: "Shape"
      input: "transpose"
      attr {
        key: "T"
        value {
          type: DT_FLOAT
        }
      }
      attr {
        key: "_output_shapes"
        value {
          list {
            shape {
              dim {
                size: 3
              }
            }
          }
        }
      }
      attr {
        key: "out_type"
        value {
          type: DT_INT32
        }
      }
    }
    node {
      name: "rnn/TensorArrayUnstack/strided_slice/stack"
      op: "Const"
      attr {
        key: "_output_shapes"
        value {
          list {
            shape {
              dim {
                size: 1
              }
            }
          }
        }
      }
      attr {
        key: "dtype"
        value {
          type: DT_INT32
        }
      }
      attr {
        key: "value"
        value {
          tensor {
            dtype: DT_INT32
            tensor_shape {
              dim {
                size: 1
              }
            }
            int_val: 0
          }
        }
      }
    }
    node {
      name: "rnn/TensorArrayUnstack/strided_slice/stack_1"
      op: "Const"
      attr {
        key: "_output_shapes"
        value {
          list {
            shape {
              dim {
                size: 1
              }
            }
          }
        }
      }
      attr {
        key: "dtype"
        value {
          type: DT_INT32
        }
      }
      attr {
        key: "value"
        value {
          tensor {
            dtype: DT_INT32
            tensor_shape {
              dim {
                size: 1
              }
            }
            int_val: 1
          }
        }
      }
    }
    node {
      name: "rnn/TensorArrayUnstack/strided_slice/stack_2"
      op: "Const"
      attr {
        key: "_output_shapes"
        value {
          list {
            shape {
              dim {
                size: 1
              }
            }
          }
        }
      }
      attr {
        key: "dtype"
        value {
          type: DT_INT32
        }
      }
      attr {
        key: "value"
        value {
          tensor {
            dtype: DT_INT32
            tensor_shape {
              dim {
                size: 1
              }
            }
            int_val: 1
          }
        }
      }
    }
    node {
      name: "rnn/TensorArrayUnstack/strided_slice"
      op: "StridedSlice"
      input: "rnn/TensorArrayUnstack/Shape"
      input: "rnn/TensorArrayUnstack/strided_slice/stack"
      input: "rnn/TensorArrayUnstack/strided_slice/stack_1"
      input: "rnn/TensorArrayUnstack/strided_slice/stack_2"
      attr {
        key: "Index"
        value {
          type: DT_INT32
        }
      }
      attr {
        key: "T"
        value {
          type: DT_INT32
        }
      }
      attr {
        key: "_output_shapes"
        value {
          list {
            shape {
            }
          }
        }
      }
      attr {
        key: "begin_mask"
        value {
          i: 0
        }
      }
      attr {
        key: "ellipsis_mask"
        value {
          i: 0
        }
      }
      attr {
        key: "end_mask"
        value {
          i: 0
        }
      }
      attr {
        key: "new_axis_mask"
        value {
          i: 0
        }
      }
      attr {
        key: "shrink_axis_mask"
        value {
          i: 1
        }
      }
    }
    node {
      name: "rnn/TensorArrayUnstack/range/start"
      op: "Const"
      attr {
        key: "_output_shapes"
        value {
          list {
            shape {
            }
          }
        }
      }
      attr {
        key: "dtype"
        value {
          type: DT_INT32
        }
      }
      attr {
        key: "value"
        value {
          tensor {
            dtype: DT_INT32
            tensor_shape {
            }
            int_val: 0
          }
        }
      }
    }
    node {
      name: "rnn/TensorArrayUnstack/range/delta"
      op: "Const"
      attr {
        key: "_output_shapes"
        value {
          list {
            shape {
            }
          }
        }
      }
      attr {
        key: "dtype"
        value {
          type: DT_INT32
        }
      }
      attr {
        key: "value"
        value {
          tensor {
            dtype: DT_INT32
            tensor_shape {
            }
            int_val: 1
          }
        }
      }
    }
    node {
      name: "rnn/TensorArrayUnstack/range"
      op: "Range"
      input: "rnn/TensorArrayUnstack/range/start"
      input: "rnn/TensorArrayUnstack/strided_slice"
      input: "rnn/TensorArrayUnstack/range/delta"
      attr {
        key: "Tidx"
        value {
          type: DT_INT32
        }
      }
      attr {
        key: "_output_shapes"
        value {
          list {
            shape {
              dim {
                size: -1
              }
            }
          }
        }
      }
    }
    node {
      name: "rnn/TensorArrayUnstack/TensorArrayScatter/TensorArrayScatterV3"
      op: "TensorArrayScatterV3"
      input: "rnn/TensorArray_1"
      input: "rnn/TensorArrayUnstack/range"
      input: "transpose"
      input: "rnn/TensorArray_1:1"
      attr {
        key: "T"
        value {
          type: DT_FLOAT
        }
      }
      attr {
        key: "_class"
        value {
          list {
            s: "loc:@transpose"
          }
        }
      }
      attr {
        key: "_output_shapes"
        value {
          list {
            shape {
            }
          }
        }
      }
    }
    node {
      name: "rnn/while/Enter"
      op: "Enter"
      input: "rnn/time"
      attr {
        key: "T"
        value {
          type: DT_INT32
        }
      }
      attr {
        key: "_output_shapes"
        value {
          list {
            shape {
            }
          }
        }
      }
      attr {
        key: "frame_name"
        value {
          s: "rnn/while/rnn/while/"
        }
      }
      attr {
        key: "is_constant"
        value {
          b: false
        }
      }
      attr {
        key: "parallel_iterations"
        value {
          i: 32
        }
      }
    }
    node {
      name: "rnn/while/Enter_1"
      op: "Enter"
      input: "rnn/TensorArray:1"
      attr {
        key: "T"
        value {
          type: DT_FLOAT
        }
      }
      attr {
        key: "_output_shapes"
        value {
          list {
            shape {
            }
          }
        }
      }
      attr {
        key: "frame_name"
        value {
          s: "rnn/while/rnn/while/"
        }
      }
      attr {
        key: "is_constant"
        value {
          b: false
        }
      }
      attr {
        key: "parallel_iterations"
        value {
          i: 32
        }
      }
    }
    node {
      name: "rnn/while/Enter_2"
      op: "Enter"
      input: "rnn/MultiRNNCellZeroState/LSTMCellZeroState/zeros"
      attr {
        key: "T"
        value {
          type: DT_FLOAT
        }
      }
      attr {
        key: "_output_shapes"
        value {
          list {
            shape {
              dim {
                size: -1
              }
              dim {
                size: 150
              }
            }
          }
        }
      }
      attr {
        key: "frame_name"
        value {
          s: "rnn/while/rnn/while/"
        }
      }
      attr {
        key: "is_constant"
        value {
          b: false
        }
      }
      attr {
        key: "parallel_iterations"
        value {
          i: 32
        }
      }
    }
    node {
      name: "rnn/while/Enter_3"
      op: "Enter"
      input: "rnn/MultiRNNCellZeroState/LSTMCellZeroState/zeros_1"
      attr {
        key: "T"
        value {
          type: DT_FLOAT
        }
      }
      attr {
        key: "_output_shapes"
        value {
          list {
            shape {
              dim {
                size: -1
              }
              dim {
                size: 150
              }
            }
          }
        }
      }
      attr {
        key: "frame_name"
        value {
          s: "rnn/while/rnn/while/"
        }
      }
      attr {
        key: "is_constant"
        value {
          b: false
        }
      }
      attr {
        key: "parallel_iterations"
        value {
          i: 32
        }
      }
    }
    node {
      name: "rnn/while/Enter_4"
      op: "Enter"
      input: "rnn/MultiRNNCellZeroState/LSTMCellZeroState_1/zeros"
      attr {
        key: "T"
        value {
          type: DT_FLOAT
        }
      }
      attr {
        key: "_output_shapes"
        value {
          list {
            shape {
              dim {
                size: -1
              }
              dim {
                size: 150
              }
            }
          }
        }
      }
      attr {
        key: "frame_name"
        value {
          s: "rnn/while/rnn/while/"
        }
      }
      attr {
        key: "is_constant"
        value {
          b: false
        }
      }
      attr {
        key: "parallel_iterations"
        value {
          i: 32
        }
      }
    }
    node {
      name: "rnn/while/Enter_5"
      op: "Enter"
      input: "rnn/MultiRNNCellZeroState/LSTMCellZeroState_1/zeros_1"
      attr {
        key: "T"
        value {
          type: DT_FLOAT
        }
      }
      attr {
        key: "_output_shapes"
        value {
          list {
            shape {
              dim {
                size: -1
              }
              dim {
                size: 150
              }
            }
          }
        }
      }
      attr {
        key: "frame_name"
        value {
          s: "rnn/while/rnn/while/"
        }
      }
      attr {
        key: "is_constant"
        value {
          b: false
        }
      }
      attr {
        key: "parallel_iterations"
        value {
          i: 32
        }
      }
    }
    node {
      name: "rnn/while/Enter_6"
      op: "Enter"
      input: "rnn/MultiRNNCellZeroState/LSTMCellZeroState_2/zeros"
      attr {
        key: "T"
        value {
          type: DT_FLOAT
        }
      }
      attr {
        key: "_output_shapes"
        value {
          list {
            shape {
              dim {
                size: -1
              }
              dim {
                size: 150
              }
            }
          }
        }
      }
      attr {
        key: "frame_name"
        value {
          s: "rnn/while/rnn/while/"
        }
      }
      attr {
        key: "is_constant"
        value {
          b: false
        }
      }
      attr {
        key: "parallel_iterations"
        value {
          i: 32
        }
      }
    }
    node {
      name: "rnn/while/Enter_7"
      op: "Enter"
      input: "rnn/MultiRNNCellZeroState/LSTMCellZeroState_2/zeros_1"
      attr {
        key: "T"
        value {
          type: DT_FLOAT
        }
      }
      attr {
        key: "_output_shapes"
        value {
          list {
            shape {
              dim {
                size: -1
              }
              dim {
                size: 150
              }
            }
          }
        }
      }
      attr {
        key: "frame_name"
        value {
          s: "rnn/while/rnn/while/"
        }
      }
      attr {
        key: "is_constant"
        value {
          b: false
        }
      }
      attr {
        key: "parallel_iterations"
        value {
          i: 32
        }
      }
    }
    node {
      name: "rnn/while/Merge"
      op: "Merge"
      input: "rnn/while/Enter"
      input: "rnn/while/NextIteration"
      attr {
        key: "N"
        value {
          i: 2
        }
      }
      attr {
        key: "T"
        value {
          type: DT_INT32
        }
      }
      attr {
        key: "_output_shapes"
        value {
          list {
            shape {
            }
            shape {
            }
          }
        }
      }
    }
    node {
      name: "rnn/while/Merge_1"
      op: "Merge"
      input: "rnn/while/Enter_1"
      input: "rnn/while/NextIteration_1"
      attr {
        key: "N"
        value {
          i: 2
        }
      }
      attr {
        key: "T"
        value {
          type: DT_FLOAT
        }
      }
      attr {
        key: "_output_shapes"
        value {
          list {
            shape {
            }
            shape {
            }
          }
        }
      }
    }
    node {
      name: "rnn/while/Merge_2"
      op: "Merge"
      input: "rnn/while/Enter_2"
      input: "rnn/while/NextIteration_2"
      attr {
        key: "N"
        value {
          i: 2
        }
      }
      attr {
        key: "T"
        value {
          type: DT_FLOAT
        }
      }
      attr {
        key: "_output_shapes"
        value {
          list {
            shape {
              dim {
                size: -1
              }
              dim {
                size: 150
              }
            }
            shape {
            }
          }
        }
      }
    }
    node {
      name: "rnn/while/Merge_3"
      op: "Merge"
      input: "rnn/while/Enter_3"
      input: "rnn/while/NextIteration_3"
      attr {
        key: "N"
        value {
          i: 2
        }
      }
      attr {
        key: "T"
        value {
          type: DT_FLOAT
        }
      }
      attr {
        key: "_output_shapes"
        value {
          list {
            shape {
              dim {
                size: -1
              }
              dim {
                size: 150
              }
            }
            shape {
            }
          }
        }
      }
    }
    node {
      name: "rnn/while/Merge_4"
      op: "Merge"
      input: "rnn/while/Enter_4"
      input: "rnn/while/NextIteration_4"
      attr {
        key: "N"
        value {
          i: 2
        }
      }
      attr {
        key: "T"
        value {
          type: DT_FLOAT
        }
      }
      attr {
        key: "_output_shapes"
        value {
          list {
            shape {
              dim {
                size: -1
              }
              dim {
                size: 150
              }
            }
            shape {
            }
          }
        }
      }
    }
    node {
      name: "rnn/while/Merge_5"
      op: "Merge"
      input: "rnn/while/Enter_5"
      input: "rnn/while/NextIteration_5"
      attr {
        key: "N"
        value {
          i: 2
        }
      }
      attr {
        key: "T"
        value {
          type: DT_FLOAT
        }
      }
      attr {
        key: "_output_shapes"
        value {
          list {
            shape {
              dim {
                size: -1
              }
              dim {
                size: 150
              }
            }
            shape {
            }
          }
        }
      }
    }
    node {
      name: "rnn/while/Merge_6"
      op: "Merge"
      input: "rnn/while/Enter_6"
      input: "rnn/while/NextIteration_6"
      attr {
        key: "N"
        value {
          i: 2
        }
      }
      attr {
        key: "T"
        value {
          type: DT_FLOAT
        }
      }
      attr {
        key: "_output_shapes"
        value {
          list {
            shape {
              dim {
                size: -1
              }
              dim {
                size: 150
              }
            }
            shape {
            }
          }
        }
      }
    }
    node {
      name: "rnn/while/Merge_7"
      op: "Merge"
      input: "rnn/while/Enter_7"
      input: "rnn/while/NextIteration_7"
      attr {
        key: "N"
        value {
          i: 2
        }
      }
      attr {
        key: "T"
        value {
          type: DT_FLOAT
        }
      }
      attr {
        key: "_output_shapes"
        value {
          list {
            shape {
              dim {
                size: -1
              }
              dim {
                size: 150
              }
            }
            shape {
            }
          }
        }
      }
    }
    node {
      name: "rnn/while/Less/Enter"
      op: "Enter"
      input: "rnn/strided_slice_1"
      attr {
        key: "T"
        value {
          type: DT_INT32
        }
      }
      attr {
        key: "_output_shapes"
        value {
          list {
            shape {
            }
          }
        }
      }
      attr {
        key: "frame_name"
        value {
          s: "rnn/while/rnn/while/"
        }
      }
      attr {
        key: "is_constant"
        value {
          b: true
        }
      }
      attr {
        key: "parallel_iterations"
        value {
          i: 32
        }
      }
    }
    node {
      name: "rnn/while/Less"
      op: "Less"
      input: "rnn/while/Merge"
      input: "rnn/while/Less/Enter"
      attr {
        key: "T"
        value {
          type: DT_INT32
        }
      }
      attr {
        key: "_output_shapes"
        value {
          list {
            shape {
            }
          }
        }
      }
    }
    node {
      name: "rnn/while/LoopCond"
      op: "LoopCond"
      input: "rnn/while/Less"
      attr {
        key: "_output_shapes"
        value {
          list {
            shape {
            }
          }
        }
      }
    }
    node {
      name: "rnn/while/Switch"
      op: "Switch"
      input: "rnn/while/Merge"
      input: "rnn/while/LoopCond"
      attr {
        key: "T"
        value {
          type: DT_INT32
        }
      }
      attr {
        key: "_class"
        value {
          list {
            s: "loc:@rnn/while/Merge"
          }
        }
      }
      attr {
        key: "_output_shapes"
        value {
          list {
            shape {
            }
            shape {
            }
          }
        }
      }
    }
    node {
      name: "rnn/while/Switch_1"
      op: "Switch"
      input: "rnn/while/Merge_1"
      input: "rnn/while/LoopCond"
      attr {
        key: "T"
        value {
          type: DT_FLOAT
        }
      }
      attr {
        key: "_class"
        value {
          list {
            s: "loc:@rnn/while/Merge_1"
          }
        }
      }
      attr {
        key: "_output_shapes"
        value {
          list {
            shape {
            }
            shape {
            }
          }
        }
      }
    }
    node {
      name: "rnn/while/Switch_2"
      op: "Switch"
      input: "rnn/while/Merge_2"
      input: "rnn/while/LoopCond"
      attr {
        key: "T"
        value {
          type: DT_FLOAT
        }
      }
      attr {
        key: "_class"
        value {
          list {
            s: "loc:@rnn/while/Merge_2"
          }
        }
      }
      attr {
        key: "_output_shapes"
        value {
          list {
            shape {
              dim {
                size: -1
              }
              dim {
                size: 150
              }
            }
            shape {
              dim {
                size: -1
              }
              dim {
                size: 150
              }
            }
          }
        }
      }
    }
    node {
      name: "rnn/while/Switch_3"
      op: "Switch"
      input: "rnn/while/Merge_3"
      input: "rnn/while/LoopCond"
      attr {
        key: "T"
        value {
          type: DT_FLOAT
        }
      }
      attr {
        key: "_class"
        value {
          list {
            s: "loc:@rnn/while/Merge_3"
          }
        }
      }
      attr {
        key: "_output_shapes"
        value {
          list {
            shape {
              dim {
                size: -1
              }
              dim {
                size: 150
              }
            }
            shape {
              dim {
                size: -1
              }
              dim {
                size: 150
              }
            }
          }
        }
      }
    }
    node {
      name: "rnn/while/Switch_4"
      op: "Switch"
      input: "rnn/while/Merge_4"
      input: "rnn/while/LoopCond"
      attr {
        key: "T"
        value {
          type: DT_FLOAT
        }
      }
      attr {
        key: "_class"
        value {
          list {
            s: "loc:@rnn/while/Merge_4"
          }
        }
      }
      attr {
        key: "_output_shapes"
        value {
          list {
            shape {
              dim {
                size: -1
              }
              dim {
                size: 150
              }
            }
            shape {
              dim {
                size: -1
              }
              dim {
                size: 150
              }
            }
          }
        }
      }
    }
    node {
      name: "rnn/while/Switch_5"
      op: "Switch"
      input: "rnn/while/Merge_5"
      input: "rnn/while/LoopCond"
      attr {
        key: "T"
        value {
          type: DT_FLOAT
        }
      }
      attr {
        key: "_class"
        value {
          list {
            s: "loc:@rnn/while/Merge_5"
          }
        }
      }
      attr {
        key: "_output_shapes"
        value {
          list {
            shape {
              dim {
                size: -1
              }
              dim {
                size: 150
              }
            }
            shape {
              dim {
                size: -1
              }
              dim {
                size: 150
              }
            }
          }
        }
      }
    }
    node {
      name: "rnn/while/Switch_6"
      op: "Switch"
      input: "rnn/while/Merge_6"
…
l/lstm_cell/mul_4_grad/BroadcastGradientArgs/RefEnter:0\nugradients/rnn/while/rnn/multi_rnn_cell/cell_1/cell_1/lstm_cell/lstm_cell/mul_4_grad/BroadcastGradientArgs/StackPush:0\nqgradients/rnn/while/rnn/multi_rnn_cell/cell_1/cell_1/lstm_cell/lstm_cell/mul_4_grad/BroadcastGradientArgs/f_acc:0\n]gradients/rnn/while/rnn/multi_rnn_cell/cell_1/cell_1/lstm_cell/lstm_cell/mul_4_grad/Shape_1:0\nbgradients/rnn/while/rnn/multi_rnn_cell/cell_1/cell_1/lstm_cell/lstm_cell/mul_4_grad/mul/RefEnter:0\ncgradients/rnn/while/rnn/multi_rnn_cell/cell_1/cell_1/lstm_cell/lstm_cell/mul_4_grad/mul/StackPush:0\n_gradients/rnn/while/rnn/multi_rnn_cell/cell_1/cell_1/lstm_cell/lstm_cell/mul_4_grad/mul/f_acc:0\ntgradients/rnn/while/rnn/multi_rnn_cell/cell_1/cell_1/lstm_cell/lstm_cell/mul_5_grad/BroadcastGradientArgs/RefEnter:0\nvgradients/rnn/while/rnn/multi_rnn_cell/cell_1/cell_1/lstm_cell/lstm_cell/mul_5_grad/BroadcastGradientArgs/RefEnter_1:0\nugradients/rnn/while/rnn/multi_rnn_cell/cell_1/cell_1/lstm_cell/lstm_cell/mul_5_grad/BroadcastGradientArgs/StackPush:0\nwgradients/rnn/while/rnn/multi_rnn_cell/cell_1/cell_1/lstm_cell/lstm_cell/mul_5_grad/BroadcastGradientArgs/StackPush_1:0\nqgradients/rnn/while/rnn/multi_rnn_cell/cell_1/cell_1/lstm_cell/lstm_cell/mul_5_grad/BroadcastGradientArgs/f_acc:0\nsgradients/rnn/while/rnn/multi_rnn_cell/cell_1/cell_1/lstm_cell/lstm_cell/mul_5_grad/BroadcastGradientArgs/f_acc_1:0\n[gradients/rnn/while/rnn/multi_rnn_cell/cell_1/cell_1/lstm_cell/lstm_cell/mul_5_grad/Shape:0\n]gradients/rnn/while/rnn/multi_rnn_cell/cell_1/cell_1/lstm_cell/lstm_cell/mul_5_grad/Shape_1:0\nbgradients/rnn/while/rnn/multi_rnn_cell/cell_1/cell_1/lstm_cell/lstm_cell/mul_5_grad/mul/RefEnter:0\ncgradients/rnn/while/rnn/multi_rnn_cell/cell_1/cell_1/lstm_cell/lstm_cell/mul_5_grad/mul/StackPush:0\n_gradients/rnn/while/rnn/multi_rnn_cell/cell_1/cell_1/lstm_cell/lstm_cell/mul_5_grad/mul/f_acc:0\ndgradients/rnn/while/rnn/multi_rnn_cell/cell_1/cell_1/lstm_cell/lstm_cell/mul_5_grad/mul_1/RefEnter:0\negradients/rnn/while/rnn/multi_rnn_cell/cell_1/cell_1/lstm_cell/lstm_cell/mul_5_grad/mul_1/StackPush:0\nagradients/rnn/while/rnn/multi_rnn_cell/cell_1/cell_1/lstm_cell/lstm_cell/mul_5_grad/mul_1/f_acc:0\nrgradients/rnn/while/rnn/multi_rnn_cell/cell_1/cell_1/lstm_cell/lstm_cell/mul_grad/BroadcastGradientArgs/RefEnter:0\nsgradients/rnn/while/rnn/multi_rnn_cell/cell_1/cell_1/lstm_cell/lstm_cell/mul_grad/BroadcastGradientArgs/StackPush:0\nogradients/rnn/while/rnn/multi_rnn_cell/cell_1/cell_1/lstm_cell/lstm_cell/mul_grad/BroadcastGradientArgs/f_acc:0\n[gradients/rnn/while/rnn/multi_rnn_cell/cell_1/cell_1/lstm_cell/lstm_cell/mul_grad/Shape_1:0\negradients/rnn/while/rnn/multi_rnn_cell/cell_1/cell_1/lstm_cell/lstm_cell/split_grad/concat/RefEnter:0\nfgradients/rnn/while/rnn/multi_rnn_cell/cell_1/cell_1/lstm_cell/lstm_cell/split_grad/concat/StackPush:0\nbgradients/rnn/while/rnn/multi_rnn_cell/cell_1/cell_1/lstm_cell/lstm_cell/split_grad/concat/f_acc:0\ntgradients/rnn/while/rnn/multi_rnn_cell/cell_2/cell_2/lstm_cell/lstm_cell/add_1_grad/BroadcastGradientArgs/RefEnter:0\nvgradients/rnn/while/rnn/multi_rnn_cell/cell_2/cell_2/lstm_cell/lstm_cell/add_1_grad/BroadcastGradientArgs/RefEnter_1:0\nugradients/rnn/while/rnn/multi_rnn_cell/cell_2/cell_2/lstm_cell/lstm_cell/add_1_grad/BroadcastGradientArgs/StackPush:0\nwgradients/rnn/while/rnn/multi_rnn_cell/cell_2/cell_2/lstm_cell/lstm_cell/add_1_grad/BroadcastGradientArgs/StackPush_1:0\nqgradients/rnn/while/rnn/multi_rnn_cell/cell_2/cell_2/lstm_cell/lstm_cell/add_1_grad/BroadcastGradientArgs/f_acc:0\nsgradients/rnn/while/rnn/multi_rnn_cell/cell_2/cell_2/lstm_cell/lstm_cell/add_1_grad/BroadcastGradientArgs/f_acc_1:0\n[gradients/rnn/while/rnn/multi_rnn_cell/cell_2/cell_2/lstm_cell/lstm_cell/add_1_grad/Shape:0\n]gradients/rnn/while/rnn/multi_rnn_cell/cell_2/cell_2/lstm_cell/lstm_cell/add_1_grad/Shape_1:0\ntgradients/rnn/while/rnn/multi_rnn_cell/cell_2/cell_2/lstm_cell/lstm_cell/add_2_grad/BroadcastGradientArgs/RefEnter:0\nvgradients/rnn/while/rnn/multi_rnn_cell/cell_2/cell_2/lstm_cell/lstm_cell/add_2_grad/BroadcastGradientArgs/RefEnter_1:0\nugradients/rnn/while/rnn/multi_rnn_cell/cell_2/cell_2/lstm_cell/lstm_cell/add_2_grad/BroadcastGradientArgs/StackPush:0\nwgradients/rnn/while/rnn/multi_rnn_cell/cell_2/cell_2/lstm_cell/lstm_cell/add_2_grad/BroadcastGradientArgs/StackPush_1:0\nqgradients/rnn/while/rnn/multi_rnn_cell/cell_2/cell_2/lstm_cell/lstm_cell/add_2_grad/BroadcastGradientArgs/f_acc:0\nsgradients/rnn/while/rnn/multi_rnn_cell/cell_2/cell_2/lstm_cell/lstm_cell/add_2_grad/BroadcastGradientArgs/f_acc_1:0\n[gradients/rnn/while/rnn/multi_rnn_cell/cell_2/cell_2/lstm_cell/lstm_cell/add_2_grad/Shape:0\n]gradients/rnn/while/rnn/multi_rnn_cell/cell_2/cell_2/lstm_cell/lstm_cell/add_2_grad/Shape_1:0\ntgradients/rnn/while/rnn/multi_rnn_cell/cell_2/cell_2/lstm_cell/lstm_cell/add_3_grad/BroadcastGradientArgs/RefEnter:0\nvgradients/rnn/while/rnn/multi_rnn_cell/cell_2/cell_2/lstm_cell/lstm_cell/add_3_grad/BroadcastGradientArgs/RefEnter_1:0\nugradients/rnn/while/rnn/multi_rnn_cell/cell_2/cell_2/lstm_cell/lstm_cell/add_3_grad/BroadcastGradientArgs/StackPush:0\nwgradients/rnn/while/rnn/multi_rnn_cell/cell_2/cell_2/lstm_cell/lstm_cell/add_3_grad/BroadcastGradientArgs/StackPush_1:0\nqgradients/rnn/while/rnn/multi_rnn_cell/cell_2/cell_2/lstm_cell/lstm_cell/add_3_grad/BroadcastGradientArgs/f_acc:0\nsgradients/rnn/while/rnn/multi_rnn_cell/cell_2/cell_2/lstm_cell/lstm_cell/add_3_grad/BroadcastGradientArgs/f_acc_1:0\n[gradients/rnn/while/rnn/multi_rnn_cell/cell_2/cell_2/lstm_cell/lstm_cell/add_3_grad/Shape:0\n]gradients/rnn/while/rnn/multi_rnn_cell/cell_2/cell_2/lstm_cell/lstm_cell/add_3_grad/Shape_1:0\ntgradients/rnn/while/rnn/multi_rnn_cell/cell_2/cell_2/lstm_cell/lstm_cell/add_4_grad/BroadcastGradientArgs/RefEnter:0\nvgradients/rnn/while/rnn/multi_rnn_cell/cell_2/cell_2/lstm_cell/lstm_cell/add_4_grad/BroadcastGradientArgs/RefEnter_1:0\nugradients/rnn/while/rnn/multi_rnn_cell/cell_2/cell_2/lstm_cell/lstm_cell/add_4_grad/BroadcastGradientArgs/StackPush:0\nwgradients/rnn/while/rnn/multi_rnn_cell/cell_2/cell_2/lstm_cell/lstm_cell/add_4_grad/BroadcastGradientArgs/StackPush_1:0\nqgradients/rnn/while/rnn/multi_rnn_cell/cell_2/cell_2/lstm_cell/lstm_cell/add_4_grad/BroadcastGradientArgs/f_acc:0\nsgradients/rnn/while/rnn/multi_rnn_cell/cell_2/cell_2/lstm_cell/lstm_cell/add_4_grad/BroadcastGradientArgs/f_acc_1:0\n[gradients/rnn/while/rnn/multi_rnn_cell/cell_2/cell_2/lstm_cell/lstm_cell/add_4_grad/Shape:0\n]gradients/rnn/while/rnn/multi_rnn_cell/cell_2/cell_2/lstm_cell/lstm_cell/add_4_grad/Shape_1:0\nrgradients/rnn/while/rnn/multi_rnn_cell/cell_2/cell_2/lstm_cell/lstm_cell/add_grad/BroadcastGradientArgs/RefEnter:0\nsgradients/rnn/while/rnn/multi_rnn_cell/cell_2/cell_2/lstm_cell/lstm_cell/add_grad/BroadcastGradientArgs/StackPush:0\nogradients/rnn/while/rnn/multi_rnn_cell/cell_2/cell_2/lstm_cell/lstm_cell/add_grad/BroadcastGradientArgs/f_acc:0\nYgradients/rnn/while/rnn/multi_rnn_cell/cell_2/cell_2/lstm_cell/lstm_cell/add_grad/Shape:0\nrgradients/rnn/while/rnn/multi_rnn_cell/cell_2/cell_2/lstm_cell/lstm_cell/lstm_cell/MatMul_grad/MatMul_1/RefEnter:0\nsgradients/rnn/while/rnn/multi_rnn_cell/cell_2/cell_2/lstm_cell/lstm_cell/lstm_cell/MatMul_grad/MatMul_1/StackPush:0\nogradients/rnn/while/rnn/multi_rnn_cell/cell_2/cell_2/lstm_cell/lstm_cell/lstm_cell/MatMul_grad/MatMul_1/f_acc:0\nfgradients/rnn/while/rnn/multi_rnn_cell/cell_2/cell_2/lstm_cell/lstm_cell/lstm_cell/concat_grad/Shape:0\npgradients/rnn/while/rnn/multi_rnn_cell/cell_2/cell_2/lstm_cell/lstm_cell/lstm_cell/concat_grad/ShapeN/RefEnter:0\nqgradients/rnn/while/rnn/multi_rnn_cell/cell_2/cell_2/lstm_cell/lstm_cell/lstm_cell/concat_grad/ShapeN/StackPush:0\nmgradients/rnn/while/rnn/multi_rnn_cell/cell_2/cell_2/lstm_cell/lstm_cell/lstm_cell/concat_grad/ShapeN/f_acc:0\nmgradients/rnn/while/rnn/multi_rnn_cell/cell_2/cell_2/lstm_cell/lstm_cell/lstm_cell/concat_grad/mod/RefEnter:0\nngradients/rnn/while/rnn/multi_rnn_cell/cell_2/cell_2/lstm_cell/lstm_cell/lstm_cell/concat_grad/mod/StackPush:0\njgradients/rnn/while/rnn/multi_rnn_cell/cell_2/cell_2/lstm_cell/lstm_cell/lstm_cell/concat_grad/mod/f_acc:0\ntgradients/rnn/while/rnn/multi_rnn_cell/cell_2/cell_2/lstm_cell/lstm_cell/mul_1_grad/BroadcastGradientArgs/RefEnter:0\nvgradients/rnn/while/rnn/multi_rnn_cell/cell_2/cell_2/lstm_cell/lstm_cell/mul_1_grad/BroadcastGradientArgs/RefEnter_1:0\nugradients/rnn/while/rnn/multi_rnn_cell/cell_2/cell_2/lstm_cell/lstm_cell/mul_1_grad/BroadcastGradientArgs/StackPush:0\nwgradients/rnn/while/rnn/multi_rnn_cell/cell_2/cell_2/lstm_cell/lstm_cell/mul_1_grad/BroadcastGradientArgs/StackPush_1:0\nqgradients/rnn/while/rnn/multi_rnn_cell/cell_2/cell_2/lstm_cell/lstm_cell/mul_1_grad/BroadcastGradientArgs/f_acc:0\nsgradients/rnn/while/rnn/multi_rnn_cell/cell_2/cell_2/lstm_cell/lstm_cell/mul_1_grad/BroadcastGradientArgs/f_acc_1:0\n[gradients/rnn/while/rnn/multi_rnn_cell/cell_2/cell_2/lstm_cell/lstm_cell/mul_1_grad/Shape:0\n]gradients/rnn/while/rnn/multi_rnn_cell/cell_2/cell_2/lstm_cell/lstm_cell/mul_1_grad/Shape_1:0\ndgradients/rnn/while/rnn/multi_rnn_cell/cell_2/cell_2/lstm_cell/lstm_cell/mul_1_grad/mul_1/RefEnter:0\negradients/rnn/while/rnn/multi_rnn_cell/cell_2/cell_2/lstm_cell/lstm_cell/mul_1_grad/mul_1/StackPush:0\nagradients/rnn/while/rnn/multi_rnn_cell/cell_2/cell_2/lstm_cell/lstm_cell/mul_1_grad/mul_1/f_acc:0\ntgradients/rnn/while/rnn/multi_rnn_cell/cell_2/cell_2/lstm_cell/lstm_cell/mul_2_grad/BroadcastGradientArgs/RefEnter:0\nugradients/rnn/while/rnn/multi_rnn_cell/cell_2/cell_2/lstm_cell/lstm_cell/mul_2_grad/BroadcastGradientArgs/StackPush:0\nqgradients/rnn/while/rnn/multi_rnn_cell/cell_2/cell_2/lstm_cell/lstm_cell/mul_2_grad/BroadcastGradientArgs/f_acc:0\n]gradients/rnn/while/rnn/multi_rnn_cell/cell_2/cell_2/lstm_cell/lstm_cell/mul_2_grad/Shape_1:0\ntgradients/rnn/while/rnn/multi_rnn_cell/cell_2/cell_2/lstm_cell/lstm_cell/mul_3_grad/BroadcastGradientArgs/RefEnter:0\nvgradients/rnn/while/rnn/multi_rnn_cell/cell_2/cell_2/lstm_cell/lstm_cell/mul_3_grad/BroadcastGradientArgs/RefEnter_1:0\nugradients/rnn/while/rnn/multi_rnn_cell/cell_2/cell_2/lstm_cell/lstm_cell/mul_3_grad/BroadcastGradientArgs/StackPush:0\nwgradients/rnn/while/rnn/multi_rnn_cell/cell_2/cell_2/lstm_cell/lstm_cell/mul_3_grad/BroadcastGradientArgs/StackPush_1:0\nqgradients/rnn/while/rnn/multi_rnn_cell/cell_2/cell_2/lstm_cell/lstm_cell/mul_3_grad/BroadcastGradientArgs/f_acc:0\nsgradients/rnn/while/rnn/multi_rnn_cell/cell_2/cell_2/lstm_cell/lstm_cell/mul_3_grad/BroadcastGradientArgs/f_acc_1:0\n[gradients/rnn/while/rnn/multi_rnn_cell/cell_2/cell_2/lstm_cell/lstm_cell/mul_3_grad/Shape:0\n]gradients/rnn/while/rnn/multi_rnn_cell/cell_2/cell_2/lstm_cell/lstm_cell/mul_3_grad/Shape_1:0\nbgradients/rnn/while/rnn/multi_rnn_cell/cell_2/cell_2/lstm_cell/lstm_cell/mul_3_grad/mul/RefEnter:0\ncgradients/rnn/while/rnn/multi_rnn_cell/cell_2/cell_2/lstm_cell/lstm_cell/mul_3_grad/mul/StackPush:0\n_gradients/rnn/while/rnn/multi_rnn_cell/cell_2/cell_2/lstm_cell/lstm_cell/mul_3_grad/mul/f_acc:0\ndgradients/rnn/while/rnn/multi_rnn_cell/cell_2/cell_2/lstm_cell/lstm_cell/mul_3_grad/mul_1/RefEnter:0\negradients/rnn/while/rnn/multi_rnn_cell/cell_2/cell_2/lstm_cell/lstm_cell/mul_3_grad/mul_1/StackPush:0\nagradients/rnn/while/rnn/multi_rnn_cell/cell_2/cell_2/lstm_cell/lstm_cell/mul_3_grad/mul_1/f_acc:0\ntgradients/rnn/while/rnn/multi_rnn_cell/cell_2/cell_2/lstm_cell/lstm_cell/mul_4_grad/BroadcastGradientArgs/RefEnter:0\nugradients/rnn/while/rnn/multi_rnn_cell/cell_2/cell_2/lstm_cell/lstm_cell/mul_4_grad/BroadcastGradientArgs/StackPush:0\nqgradients/rnn/while/rnn/multi_rnn_cell/cell_2/cell_2/lstm_cell/lstm_cell/mul_4_grad/BroadcastGradientArgs/f_acc:0\n]gradients/rnn/while/rnn/multi_rnn_cell/cell_2/cell_2/lstm_cell/lstm_cell/mul_4_grad/Shape_1:0\nbgradients/rnn/while/rnn/multi_rnn_cell/cell_2/cell_2/lstm_cell/lstm_cell/mul_4_grad/mul/RefEnter:0\ncgradients/rnn/while/rnn/multi_rnn_cell/cell_2/cell_2/lstm_cell/lstm_cell/mul_4_grad/mul/StackPush:0\n_gradients/rnn/while/rnn/multi_rnn_cell/cell_2/cell_2/lstm_cell/lstm_cell/mul_4_grad/mul/f_acc:0\ntgradients/rnn/while/rnn/multi_rnn_cell/cell_2/cell_2/lstm_cell/lstm_cell/mul_5_grad/BroadcastGradientArgs/RefEnter:0\nvgradients/rnn/while/rnn/multi_rnn_cell/cell_2/cell_2/lstm_cell/lstm_cell/mul_5_grad/BroadcastGradientArgs/RefEnter_1:0\nugradients/rnn/while/rnn/multi_rnn_cell/cell_2/cell_2/lstm_cell/lstm_cell/mul_5_grad/BroadcastGradientArgs/StackPush:0\nwgradients/rnn/while/rnn/multi_rnn_cell/cell_2/cell_2/lstm_cell/lstm_cell/mul_5_grad/BroadcastGradientArgs/StackPush_1:0\nqgradients/rnn/while/rnn/multi_rnn_cell/cell_2/cell_2/lstm_cell/lstm_cell/mul_5_grad/BroadcastGradientArgs/f_acc:0\nsgradients/rnn/while/rnn/multi_rnn_cell/cell_2/cell_2/lstm_cell/lstm_cell/mul_5_grad/BroadcastGradientArgs/f_acc_1:0\n[gradients/rnn/while/rnn/multi_rnn_cell/cell_2/cell_2/lstm_cell/lstm_cell/mul_5_grad/Shape:0\n]gradients/rnn/while/rnn/multi_rnn_cell/cell_2/cell_2/lstm_cell/lstm_cell/mul_5_grad/Shape_1:0\nbgradients/rnn/while/rnn/multi_rnn_cell/cell_2/cell_2/lstm_cell/lstm_cell/mul_5_grad/mul/RefEnter:0\ncgradients/rnn/while/rnn/multi_rnn_cell/cell_2/cell_2/lstm_cell/lstm_cell/mul_5_grad/mul/StackPush:0\n_gradients/rnn/while/rnn/multi_rnn_cell/cell_2/cell_2/lstm_cell/lstm_cell/mul_5_grad/mul/f_acc:0\ndgradients/rnn/while/rnn/multi_rnn_cell/cell_2/cell_2/lstm_cell/lstm_cell/mul_5_grad/mul_1/RefEnter:0\negradients/rnn/while/rnn/multi_rnn_cell/cell_2/cell_2/lstm_cell/lstm_cell/mul_5_grad/mul_1/StackPush:0\nagradients/rnn/while/rnn/multi_rnn_cell/cell_2/cell_2/lstm_cell/lstm_cell/mul_5_grad/mul_1/f_acc:0\nrgradients/rnn/while/rnn/multi_rnn_cell/cell_2/cell_2/lstm_cell/lstm_cell/mul_grad/BroadcastGradientArgs/RefEnter:0\nsgradients/rnn/while/rnn/multi_rnn_cell/cell_2/cell_2/lstm_cell/lstm_cell/mul_grad/BroadcastGradientArgs/StackPush:0\nogradients/rnn/while/rnn/multi_rnn_cell/cell_2/cell_2/lstm_cell/lstm_cell/mul_grad/BroadcastGradientArgs/f_acc:0\n[gradients/rnn/while/rnn/multi_rnn_cell/cell_2/cell_2/lstm_cell/lstm_cell/mul_grad/Shape_1:0\negradients/rnn/while/rnn/multi_rnn_cell/cell_2/cell_2/lstm_cell/lstm_cell/split_grad/concat/RefEnter:0\nfgradients/rnn/while/rnn/multi_rnn_cell/cell_2/cell_2/lstm_cell/lstm_cell/split_grad/concat/StackPush:0\nbgradients/rnn/while/rnn/multi_rnn_cell/cell_2/cell_2/lstm_cell/lstm_cell/split_grad/concat/f_acc:0\n\021rnn/CheckSeqLen:0\n\021rnn/TensorArray:0\n@rnn/TensorArrayUnstack/TensorArrayScatter/TensorArrayScatterV3:0\n\023rnn/TensorArray_1:0\n/rnn/multi_rnn_cell/cell_0/lstm_cell/bias/read:0\n1rnn/multi_rnn_cell/cell_0/lstm_cell/kernel/read:0\n3rnn/multi_rnn_cell/cell_0/lstm_cell/w_f_diag/read:0\n3rnn/multi_rnn_cell/cell_0/lstm_cell/w_i_diag/read:0\n3rnn/multi_rnn_cell/cell_0/lstm_cell/w_o_diag/read:0\n/rnn/multi_rnn_cell/cell_1/lstm_cell/bias/read:0\n1rnn/multi_rnn_cell/cell_1/lstm_cell/kernel/read:0\n3rnn/multi_rnn_cell/cell_1/lstm_cell/w_f_diag/read:0\n3rnn/multi_rnn_cell/cell_1/lstm_cell/w_i_diag/read:0\n3rnn/multi_rnn_cell/cell_1/lstm_cell/w_o_diag/read:0\n/rnn/multi_rnn_cell/cell_2/lstm_cell/bias/read:0\n1rnn/multi_rnn_cell/cell_2/lstm_cell/kernel/read:0\n3rnn/multi_rnn_cell/cell_2/lstm_cell/w_f_diag/read:0\n3rnn/multi_rnn_cell/cell_2/lstm_cell/w_i_diag/read:0\n3rnn/multi_rnn_cell/cell_2/lstm_cell/w_o_diag/read:0\n\025rnn/strided_slice_1:0\n\021rnn/while/Enter:0\n\023rnn/while/Enter_1:0\n\023rnn/while/Enter_2:0\n\023rnn/while/Enter_3:0\n\023rnn/while/Enter_4:0\n\023rnn/while/Enter_5:0\n\023rnn/while/Enter_6:0\n\023rnn/while/Enter_7:0\n\020rnn/while/Exit:0\n\022rnn/while/Exit_1:0\n\022rnn/while/Exit_2:0\n\022rnn/while/Exit_3:0\n\022rnn/while/Exit_4:0\n\022rnn/while/Exit_5:0\n\022rnn/while/Exit_6:0\n\022rnn/while/Exit_7:0\n\036rnn/while/GreaterEqual/Enter:0\n\030rnn/while/GreaterEqual:0\n\032rnn/while/GreaterEqual_1:0\n\032rnn/while/GreaterEqual_2:0\n\032rnn/while/GreaterEqual_3:0\n\032rnn/while/GreaterEqual_4:0\n\032rnn/while/GreaterEqual_5:0\n\032rnn/while/GreaterEqual_6:0\n\024rnn/while/Identity:0\n\026rnn/while/Identity_1:0\n\026rnn/while/Identity_2:0\n\026rnn/while/Identity_3:0\n\026rnn/while/Identity_4:0\n\026rnn/while/Identity_5:0\n\026rnn/while/Identity_6:0\n\026rnn/while/Identity_7:0\n\026rnn/while/Less/Enter:0\n\020rnn/while/Less:0\n\024rnn/while/LoopCond:0\n\021rnn/while/Merge:0\n\021rnn/while/Merge:1\n\023rnn/while/Merge_1:0\n\023rnn/while/Merge_1:1\n\023rnn/while/Merge_2:0\n\023rnn/while/Merge_2:1\n\023rnn/while/Merge_3:0\n\023rnn/while/Merge_3:1\n\023rnn/while/Merge_4:0\n\023rnn/while/Merge_4:1\n\023rnn/while/Merge_5:0\n\023rnn/while/Merge_5:1\n\023rnn/while/Merge_6:0\n\023rnn/while/Merge_6:1\n\023rnn/while/Merge_7:0\n\023rnn/while/Merge_7:1\n\031rnn/while/NextIteration:0\n\033rnn/while/NextIteration_1:0\n\033rnn/while/NextIteration_2:0\n\033rnn/while/NextIteration_3:0\n\033rnn/while/NextIteration_4:0\n\033rnn/while/NextIteration_5:0\n\033rnn/while/NextIteration_6:0\n\033rnn/while/NextIteration_7:0\n\030rnn/while/Select/Enter:0\n\022rnn/while/Select:0\n\024rnn/while/Select_1:0\n\024rnn/while/Select_2:0\n\024rnn/while/Select_3:0\n\024rnn/while/Select_4:0\n\024rnn/while/Select_5:0\n\024rnn/while/Select_6:0\n\022rnn/while/Switch:0\n\022rnn/while/Switch:1\n\024rnn/while/Switch_1:0\n\024rnn/while/Switch_1:1\n\024rnn/while/Switch_2:0\n\024rnn/while/Switch_2:1\n\024rnn/while/Switch_3:0\n\024rnn/while/Switch_3:1\n\024rnn/while/Switch_4:0\n\024rnn/while/Switch_4:1\n\024rnn/while/Switch_5:0\n\024rnn/while/Switch_5:1\n\024rnn/while/Switch_6:0\n\024rnn/while/Switch_6:1\n\024rnn/while/Switch_7:0\n\024rnn/while/Switch_7:1\n#rnn/while/TensorArrayReadV3/Enter:0\n%rnn/while/TensorArrayReadV3/Enter_1:0\n\035rnn/while/TensorArrayReadV3:0\n5rnn/while/TensorArrayWrite/TensorArrayWriteV3/Enter:0\n/rnn/while/TensorArrayWrite/TensorArrayWriteV3:0\n\021rnn/while/add/y:0\n\017rnn/while/add:0\nFrnn/while/rnn/multi_rnn_cell/cell_0/cell_0/lstm_cell/lstm_cell/Const:0\nHrnn/while/rnn/multi_rnn_cell/cell_0/cell_0/lstm_cell/lstm_cell/Sigmoid:0\nJrnn/while/rnn/multi_rnn_cell/cell_0/cell_0/lstm_cell/lstm_cell/Sigmoid_1:0\nJrnn/while/rnn/multi_rnn_cell/cell_0/cell_0/lstm_cell/lstm_cell/Sigmoid_2:0\nErnn/while/rnn/multi_rnn_cell/cell_0/cell_0/lstm_cell/lstm_cell/Tanh:0\nGrnn/while/rnn/multi_rnn_cell/cell_0/cell_0/lstm_cell/lstm_cell/Tanh_1:0\nFrnn/while/rnn/multi_rnn_cell/cell_0/cell_0/lstm_cell/lstm_cell/add/y:0\nDrnn/while/rnn/multi_rnn_cell/cell_0/cell_0/lstm_cell/lstm_cell/add:0\nFrnn/while/rnn/multi_rnn_cell/cell_0/cell_0/lstm_cell/lstm_cell/add_1:0\nFrnn/while/rnn/multi_rnn_cell/cell_0/cell_0/lstm_cell/lstm_cell/add_2:0\nFrnn/while/rnn/multi_rnn_cell/cell_0/cell_0/lstm_cell/lstm_cell/add_3:0\nFrnn/while/rnn/multi_rnn_cell/cell_0/cell_0/lstm_cell/lstm_cell/add_4:0\nXrnn/while/rnn/multi_rnn_cell/cell_0/cell_0/lstm_cell/lstm_cell/lstm_cell/BiasAdd/Enter:0\nRrnn/while/rnn/multi_rnn_cell/cell_0/cell_0/lstm_cell/lstm_cell/lstm_cell/BiasAdd:0\nWrnn/while/rnn/multi_rnn_cell/cell_0/cell_0/lstm_cell/lstm_cell/lstm_cell/MatMul/Enter:0\nQrnn/while/rnn/multi_rnn_cell/cell_0/cell_0/lstm_cell/lstm_cell/lstm_cell/MatMul:0\nVrnn/while/rnn/multi_rnn_cell/cell_0/cell_0/lstm_cell/lstm_cell/lstm_cell/concat/axis:0\nQrnn/while/rnn/multi_rnn_cell/cell_0/cell_0/lstm_cell/lstm_cell/lstm_cell/concat:0\nJrnn/while/rnn/multi_rnn_cell/cell_0/cell_0/lstm_cell/lstm_cell/mul/Enter:0\nDrnn/while/rnn/multi_rnn_cell/cell_0/cell_0/lstm_cell/lstm_cell/mul:0\nFrnn/while/rnn/multi_rnn_cell/cell_0/cell_0/lstm_cell/lstm_cell/mul_1:0\nLrnn/while/rnn/multi_rnn_cell/cell_0/cell_0/lstm_cell/lstm_cell/mul_2/Enter:0\nFrnn/while/rnn/multi_rnn_cell/cell_0/cell_0/lstm_cell/lstm_cell/mul_2:0\nFrnn/while/rnn/multi_rnn_cell/cell_0/cell_0/lstm_cell/lstm_cell/mul_3:0\nLrnn/while/rnn/multi_rnn_cell/cell_0/cell_0/lstm_cell/lstm_cell/mul_4/Enter:0\nFrnn/while/rnn/multi_rnn_cell/cell_0/cell_0/lstm_cell/lstm_cell/mul_4:0\nFrnn/while/rnn/multi_rnn_cell/cell_0/cell_0/lstm_cell/lstm_cell/mul_5:0\nPrnn/while/rnn/multi_rnn_cell/cell_0/cell_0/lstm_cell/lstm_cell/split/split_dim:0\nFrnn/while/rnn/multi_rnn_cell/cell_0/cell_0/lstm_cell/lstm_cell/split:0\nFrnn/while/rnn/multi_rnn_cell/cell_0/cell_0/lstm_cell/lstm_cell/split:1\nFrnn/while/rnn/multi_rnn_cell/cell_0/cell_0/lstm_cell/lstm_cell/split:2\nFrnn/while/rnn/multi_rnn_cell/cell_0/cell_0/lstm_cell/lstm_cell/split:3\nFrnn/while/rnn/multi_rnn_cell/cell_1/cell_1/lstm_cell/lstm_cell/Const:0\nHrnn/while/rnn/multi_rnn_cell/cell_1/cell_1/lstm_cell/lstm_cell/Sigmoid:0\nJrnn/while/rnn/multi_rnn_cell/cell_1/cell_1/lstm_cell/lstm_cell/Sigmoid_1:0\nJrnn/while/rnn/multi_rnn_cell/cell_1/cell_1/lstm_cell/lstm_cell/Sigmoid_2:0\nErnn/while/rnn/multi_rnn_cell/cell_1/cell_1/lstm_cell/lstm_cell/Tanh:0\nGrnn/while/rnn/multi_rnn_cell/cell_1/cell_1/lstm_cell/lstm_cell/Tanh_1:0\nFrnn/while/rnn/multi_rnn_cell/cell_1/cell_1/lstm_cell/lstm_cell/add/y:0\nDrnn/while/rnn/multi_rnn_cell/cell_1/cell_1/lstm_cell/lstm_cell/add:0\nFrnn/while/rnn/multi_rnn_cell/cell_1/cell_1/lstm_cell/lstm_cell/add_1:0\nFrnn/while/rnn/multi_rnn_cell/cell_1/cell_1/lstm_cell/lstm_cell/add_2:0\nFrnn/while/rnn/multi_rnn_cell/cell_1/cell_1/lstm_cell/lstm_cell/add_3:0\nFrnn/while/rnn/multi_rnn_cell/cell_1/cell_1/lstm_cell/lstm_cell/add_4:0\nXrnn/while/rnn/multi_rnn_cell/cell_1/cell_1/lstm_cell/lstm_cell/lstm_cell/BiasAdd/Enter:0\nRrnn/while/rnn/multi_rnn_cell/cell_1/cell_1/lstm_cell/lstm_cell/lstm_cell/BiasAdd:0\nWrnn/while/rnn/multi_rnn_cell/cell_1/cell_1/lstm_cell/lstm_cell/lstm_cell/MatMul/Enter:0\nQrnn/while/rnn/multi_rnn_cell/cell_1/cell_1/lstm_cell/lstm_cell/lstm_cell/MatMul:0\nVrnn/while/rnn/multi_rnn_cell/cell_1/cell_1/lstm_cell/lstm_cell/lstm_cell/concat/axis:0\nQrnn/while/rnn/multi_rnn_cell/cell_1/cell_1/lstm_cell/lstm_cell/lstm_cell/concat:0\nJrnn/while/rnn/multi_rnn_cell/cell_1/cell_1/lstm_cell/lstm_cell/mul/Enter:0\nDrnn/while/rnn/multi_rnn_cell/cell_1/cell_1/lstm_cell/lstm_cell/mul:0\nFrnn/while/rnn/multi_rnn_cell/cell_1/cell_1/lstm_cell/lstm_cell/mul_1:0\nLrnn/while/rnn/multi_rnn_cell/cell_1/cell_1/lstm_cell/lstm_cell/mul_2/Enter:0\nFrnn/while/rnn/multi_rnn_cell/cell_1/cell_1/lstm_cell/lstm_cell/mul_2:0\nFrnn/while/rnn/multi_rnn_cell/cell_1/cell_1/lstm_cell/lstm_cell/mul_3:0\nLrnn/while/rnn/multi_rnn_cell/cell_1/cell_1/lstm_cell/lstm_cell/mul_4/Enter:0\nFrnn/while/rnn/multi_rnn_cell/cell_1/cell_1/lstm_cell/lstm_cell/mul_4:0\nFrnn/while/rnn/multi_rnn_cell/cell_1/cell_1/lstm_cell/lstm_cell/mul_5:0\nPrnn/while/rnn/multi_rnn_cell/cell_1/cell_1/lstm_cell/lstm_cell/split/split_dim:0\nFrnn/while/rnn/multi_rnn_cell/cell_1/cell_1/lstm_cell/lstm_cell/split:0\nFrnn/while/rnn/multi_rnn_cell/cell_1/cell_1/lstm_cell/lstm_cell/split:1\nFrnn/while/rnn/multi_rnn_cell/cell_1/cell_1/lstm_cell/lstm_cell/split:2\nFrnn/while/rnn/multi_rnn_cell/cell_1/cell_1/lstm_cell/lstm_cell/split:3\nFrnn/while/rnn/multi_rnn_cell/cell_2/cell_2/lstm_cell/lstm_cell/Const:0\nHrnn/while/rnn/multi_rnn_cell/cell_2/cell_2/lstm_cell/lstm_cell/Sigmoid:0\nJrnn/while/rnn/multi_rnn_cell/cell_2/cell_2/lstm_cell/lstm_cell/Sigmoid_1:0\nJrnn/while/rnn/multi_rnn_cell/cell_2/cell_2/lstm_cell/lstm_cell/Sigmoid_2:0\nErnn/while/rnn/multi_rnn_cell/cell_2/cell_2/lstm_cell/lstm_cell/Tanh:0\nGrnn/while/rnn/multi_rnn_cell/cell_2/cell_2/lstm_cell/lstm_cell/Tanh_1:0\nFrnn/while/rnn/multi_rnn_cell/cell_2/cell_2/lstm_cell/lstm_cell/add/y:0\nDrnn/while/rnn/multi_rnn_cell/cell_2/cell_2/lstm_cell/lstm_cell/add:0\nFrnn/while/rnn/multi_rnn_cell/cell_2/cell_2/lstm_cell/lstm_cell/add_1:0\nFrnn/while/rnn/multi_rnn_cell/cell_2/cell_2/lstm_cell/lstm_cell/add_2:0\nFrnn/while/rnn/multi_rnn_cell/cell_2/cell_2/lstm_cell/lstm_cell/add_3:0\nFrnn/while/rnn/multi_rnn_cell/cell_2/cell_2/lstm_cell/lstm_cell/add_4:0\nXrnn/while/rnn/multi_rnn_cell/cell_2/cell_2/lstm_cell/lstm_cell/lstm_cell/BiasAdd/Enter:0\nRrnn/while/rnn/multi_rnn_cell/cell_2/cell_2/lstm_cell/lstm_cell/lstm_cell/BiasAdd:0\nWrnn/while/rnn/multi_rnn_cell/cell_2/cell_2/lstm_cell/lstm_cell/lstm_cell/MatMul/Enter:0\nQrnn/while/rnn/multi_rnn_cell/cell_2/cell_2/lstm_cell/lstm_cell/lstm_cell/MatMul:0\nVrnn/while/rnn/multi_rnn_cell/cell_2/cell_2/lstm_cell/lstm_cell/lstm_cell/concat/axis:0\nQrnn/while/rnn/multi_rnn_cell/cell_2/cell_2/lstm_cell/lstm_cell/lstm_cell/concat:0\nJrnn/while/rnn/multi_rnn_cell/cell_2/cell_2/lstm_cell/lstm_cell/mul/Enter:0\nDrnn/while/rnn/multi_rnn_cell/cell_2/cell_2/lstm_cell/lstm_cell/mul:0\nFrnn/while/rnn/multi_rnn_cell/cell_2/cell_2/lstm_cell/lstm_cell/mul_1:0\nLrnn/while/rnn/multi_rnn_cell/cell_2/cell_2/lstm_cell/lstm_cell/mul_2/Enter:0\nFrnn/while/rnn/multi_rnn_cell/cell_2/cell_2/lstm_cell/lstm_cell/mul_2:0\nFrnn/while/rnn/multi_rnn_cell/cell_2/cell_2/lstm_cell/lstm_cell/mul_3:0\nLrnn/while/rnn/multi_rnn_cell/cell_2/cell_2/lstm_cell/lstm_cell/mul_4/Enter:0\nFrnn/while/rnn/multi_rnn_cell/cell_2/cell_2/lstm_cell/lstm_cell/mul_4:0\nFrnn/while/rnn/multi_rnn_cell/cell_2/cell_2/lstm_cell/lstm_cell/mul_5:0\nPrnn/while/rnn/multi_rnn_cell/cell_2/cell_2/lstm_cell/lstm_cell/split/split_dim:0\nFrnn/while/rnn/multi_rnn_cell/cell_2/cell_2/lstm_cell/lstm_cell/split:0\nFrnn/while/rnn/multi_rnn_cell/cell_2/cell_2/lstm_cell/lstm_cell/split:1\nFrnn/while/rnn/multi_rnn_cell/cell_2/cell_2/lstm_cell/lstm_cell/split:2\nFrnn/while/rnn/multi_rnn_cell/cell_2/cell_2/lstm_cell/lstm_cell/split:3\n\013rnn/zeros:0\022/\n\025rnn/strided_slice_1:0\022\026rnn/while/Less/Enter:0\022o\n4gradients/rnn/while/Select_2_grad/zeros_like/f_acc:0\0227gradients/rnn/while/Select_2_grad/zeros_like/RefEnter:0\022\201\001\n3rnn/multi_rnn_cell/cell_2/lstm_cell/w_f_diag/read:0\022Jrnn/while/rnn/multi_rnn_cell/cell_2/cell_2/lstm_cell/lstm_cell/mul/Enter:0\022\213\001\n/rnn/multi_rnn_cell/cell_1/lstm_cell/bias/read:0\022Xrnn/while/rnn/multi_rnn_cell/cell_1/cell_1/lstm_cell/lstm_cell/lstm_cell/BiasAdd/Enter:0\022\345\001\nogradients/rnn/while/rnn/multi_rnn_cell/cell_2/cell_2/lstm_cell/lstm_cell/mul_grad/BroadcastGradientArgs/f_acc:0\022rgradients/rnn/while/rnn/multi_rnn_cell/cell_2/cell_2/lstm_cell/lstm_cell/mul_grad/BroadcastGradientArgs/RefEnter:0\022\351\001\nqgradients/rnn/while/rnn/multi_rnn_cell/cell_2/cell_2/lstm_cell/lstm_cell/mul_4_grad/BroadcastGradientArgs/f_acc:0\022tgradients/rnn/while/rnn/multi_rnn_cell/cell_2/cell_2/lstm_cell/lstm_cell/mul_4_grad/BroadcastGradientArgs/RefEnter:0\022\305\001\n_gradients/rnn/while/rnn/multi_rnn_cell/cell_1/cell_1/lstm_cell/lstm_cell/mul_5_grad/mul/f_acc:0\022bgradients/rnn/while/rnn/multi_rnn_cell/cell_1/cell_1/lstm_cell/lstm_cell/mul_5_grad/mul/RefEnter:0\022J\n\021rnn/TensorArray:0\0225rnn/while/TensorArrayWrite/TensorArrayWriteV3/Enter:0\022\203\001\n3rnn/multi_rnn_cell/cell_1/lstm_cell/w_o_diag/read:0\022Lrnn/while/rnn/multi_rnn_cell/cell_1/cell_1/lstm_cell/lstm_cell/mul_4/Enter:0\022\214\001\n1rnn/multi_rnn_cell/cell_2/lstm_cell/kernel/read:0\022Wrnn/while/rnn/multi_rnn_cell/cell_2/cell_2/lstm_cell/lstm_cell/lstm_cell/MatMul/Enter:0\022\311\001\nagradients/rnn/while/rnn/multi_rnn_cell/cell_1/cell_1/lstm_cell/lstm_cell/mul_5_grad/mul_1/f_acc:0\022dgradients/rnn/while/rnn/multi_rnn_cell/cell_1/cell_1/lstm_cell/lstm_cell/mul_5_grad/mul_1/RefEnter:0\022\341\001\nmgradients/rnn/while/rnn/multi_rnn_cell/cell_1/cell_1/lstm_cell/lstm_cell/lstm_cell/concat_grad/ShapeN/f_acc:0\022pgradients/rnn/while/rnn/multi_rnn_cell/cell_1/cell_1/lstm_cell/lstm_cell/lstm_cell/concat_grad/ShapeN/RefEnter:0\022g\n0gradients/rnn/while/Select_4_grad/Select/f_acc:0\0223gradients/rnn/while/Select_4_grad/Select/RefEnter:0\022\311\001\nagradients/rnn/while/rnn/multi_rnn_cell/cell_0/cell_0/lstm_cell/lstm_cell/mul_1_grad/mul_1/f_acc:0\022dgradients/rnn/while/rnn/multi_rnn_cell/cell_0/cell_0/lstm_cell/lstm_cell/mul_1_grad/mul_1/RefEnter:0\022\351\001\nqgradients/rnn/while/rnn/multi_rnn_cell/cell_0/cell_0/lstm_cell/lstm_cell/add_1_grad/BroadcastGradientArgs/f_acc:0\022tgradients/rnn/while/rnn/multi_rnn_cell/cell_0/cell_0/lstm_cell/lstm_cell/add_1_grad/BroadcastGradientArgs/RefEnter:0\022\305\001\n_gradients/rnn/while/rnn/multi_rnn_cell/cell_1/cell_1/lstm_cell/lstm_cell/mul_3_grad/mul/f_acc:0\022bgradients/rnn/while/rnn/multi_rnn_cell/cell_1/cell_1/lstm_cell/lstm_cell/mul_3_grad/mul/RefEnter:0\022\345\001\nogradients/rnn/while/rnn/multi_rnn_cell/cell_0/cell_0/lstm_cell/lstm_cell/lstm_cell/MatMul_grad/MatMul_1/f_acc:0\022rgradients/rnn/while/rnn/multi_rnn_cell/cell_0/cell_0/lstm_cell/lstm_cell/lstm_cell/MatMul_grad/MatMul_1/RefEnter:0\022\351\001\nqgradients/rnn/while/rnn/multi_rnn_cell/cell_2/cell_2/lstm_cell/lstm_cell/add_2_grad/BroadcastGradientArgs/f_acc:0\022tgradients/rnn/while/rnn/multi_rnn_cell/cell_2/cell_2/lstm_cell/lstm_cell/add_2_grad/BroadcastGradientArgs/RefEnter:0\022\305\001\n_gradients/rnn/while/rnn/multi_rnn_cell/cell_2/cell_2/lstm_cell/lstm_cell/mul_5_grad/mul/f_acc:0\022bgradients/rnn/while/rnn/multi_rnn_cell/cell_2/cell_2/lstm_cell/lstm_cell/mul_5_grad/mul/RefEnter:0\022\345\001\nogradients/rnn/while/rnn/multi_rnn_cell/cell_0/cell_0/lstm_cell/lstm_cell/add_grad/BroadcastGradientArgs/f_acc:0\022rgradients/rnn/while/rnn/multi_rnn_cell/cell_0/cell_0/lstm_cell/lstm_cell/add_grad/BroadcastGradientArgs/RefEnter:0\022\345\001\nogradients/rnn/while/rnn/multi_rnn_cell/cell_2/cell_2/lstm_cell/lstm_cell/add_grad/BroadcastGradientArgs/f_acc:0\022rgradients/rnn/while/rnn/multi_rnn_cell/cell_2/cell_2/lstm_cell/lstm_cell/add_grad/BroadcastGradientArgs/RefEnter:0\022\345\001\nogradients/rnn/while/rnn/multi_rnn_cell/cell_0/cell_0/lstm_cell/lstm_cell/mul_grad/BroadcastGradientArgs/f_acc:0\022rgradients/rnn/while/rnn/multi_rnn_cell/cell_0/cell_0/lstm_cell/lstm_cell/mul_grad/BroadcastGradientArgs/RefEnter:0\022\355\001\nsgradients/rnn/while/rnn/multi_rnn_cell/cell_1/cell_1/lstm_cell/lstm_cell/mul_5_grad/BroadcastGradientArgs/f_acc_1:0\022vgradients/rnn/while/rnn/multi_rnn_cell/cell_1/cell_1/lstm_cell/lstm_cell/mul_5_grad/BroadcastGradientArgs/RefEnter_1:0\022\355\001\nsgradients/rnn/while/rnn/multi_rnn_cell/cell_0/cell_0/lstm_cell/lstm_cell/add_3_grad/BroadcastGradientArgs/f_acc_1:0\022vgradients/rnn/while/rnn/multi_rnn_cell/cell_0/cell_0/lstm_cell/lstm_cell/add_3_grad/BroadcastGradientArgs/RefEnter_1:0\022\351\001\nqgradients/rnn/while/rnn/multi_rnn_cell/cell_1/cell_1/lstm_cell/lstm_cell/add_2_grad/BroadcastGradientArgs/f_acc:0\022tgradients/rnn/while/rnn/multi_rnn_cell/cell_1/cell_1/lstm_cell/lstm_cell/add_2_grad/BroadcastGradientArgs/RefEnter:0\022\333\001\njgradients/rnn/while/rnn/multi_rnn_cell/cell_1/cell_1/lstm_cell/lstm_cell/lstm_cell/concat_grad/mod/f_acc:0\022mgradients/rnn/while/rnn/multi_rnn_cell/cell_1/cell_1/lstm_cell/lstm_cell/lstm_cell/concat_grad/mod/RefEnter:0\022\351\001\nqgradients/rnn/while/rnn/multi_rnn_cell/cell_0/cell_0/lstm_cell/lstm_cell/mul_3_grad/BroadcastGradientArgs/f_acc:0\022tgradients/rnn/while/rnn/multi_rnn_cell/cell_0/cell_0/lstm_cell/lstm_cell/mul_3_grad/BroadcastGradientArgs/RefEnter:0\022\355\001\nsgradients/rnn/while/rnn/multi_rnn_cell/cell_1/cell_1/lstm_cell/lstm_cell/add_4_grad/BroadcastGradientArgs/f_acc_1:0\022vgradients/rnn/while/rnn/multi_rnn_cell/cell_1/cell_1/lstm_cell/lstm_cell/add_4_grad/BroadcastGradientArgs/RefEnter_1:0\022\305\001\n_gradients/rnn/while/rnn/multi_rnn_cell/cell_1/cell_1/lstm_cell/lstm_cell/mul_4_grad/mul/f_acc:0\022bgradients/rnn/while/rnn/multi_rnn_cell/cell_1/cell_1/lstm_cell/lstm_cell/mul_4_grad/mul/RefEnter:0\022\351\001\nqgradients/rnn/while/rnn/multi_rnn_cell/cell_2/cell_2/lstm_cell/lstm_cell/mul_5_grad/BroadcastGradientArgs/f_acc:0\022tgradients/rnn/while/rnn/multi_rnn_cell/cell_2/cell_2/lstm_cell/lstm_cell/mul_5_grad/BroadcastGradientArgs/RefEnter:0\022\351\001\nqgradients/rnn/while/rnn/multi_rnn_cell/cell_1/cell_1/lstm_cell/lstm_cell/mul_5_grad/BroadcastGradientArgs/f_acc:0\022tgradients/rnn/while/rnn/multi_rnn_cell/cell_1/cell_1/lstm_cell/lstm_cell/mul_5_grad/BroadcastGradientArgs/RefEnter:0\022\355\001\nsgradients/rnn/while/rnn/multi_rnn_cell/cell_0/cell_0/lstm_cell/lstm_cell/mul_3_grad/BroadcastGradientArgs/f_acc_1:0\022vgradients/rnn/while/rnn/multi_rnn_cell/cell_0/cell_0/lstm_cell/lstm_cell/mul_3_grad/BroadcastGradientArgs/RefEnter_1:0\022g\n0gradients/rnn/while/Select_5_grad/Select/f_acc:0\0223gradients/rnn/while/Select_5_grad/Select/RefEnter:0\022g\n0gradients/rnn/while/Select_6_grad/Select/f_acc:0\0223gradients/rnn/while/Select_6_grad/Select/RefEnter:0\022\345\001\nogradients/rnn/while/rnn/multi_rnn_cell/cell_2/cell_2/lstm_cell/lstm_cell/lstm_cell/MatMul_grad/MatMul_1/f_acc:0\022rgradients/rnn/while/rnn/multi_rnn_cell/cell_2/cell_2/lstm_cell/lstm_cell/lstm_cell/MatMul_grad/MatMul_1/RefEnter:0\022o\n4gradients/rnn/while/Select_4_grad/zeros_like/f_acc:0\0227gradients/rnn/while/Select_4_grad/zeros_like/RefEnter:0\022\355\001\nsgradients/rnn/while/rnn/multi_rnn_cell/cell_2/cell_2/lstm_cell/lstm_cell/add_4_grad/BroadcastGradientArgs/f_acc_1:0\022vgradients/rnn/while/rnn/multi_rnn_cell/cell_2/cell_2/lstm_cell/lstm_cell/add_4_grad/BroadcastGradientArgs/RefEnter_1:0\022\355\001\nsgradients/rnn/while/rnn/multi_rnn_cell/cell_0/cell_0/lstm_cell/lstm_cell/mul_1_grad/BroadcastGradientArgs/f_acc_1:0\022vgradients/rnn/while/rnn/multi_rnn_cell/cell_0/cell_0/lstm_cell/lstm_cell/mul_1_grad/BroadcastGradientArgs/RefEnter_1:0\022g\n0gradients/rnn/while/Select_2_grad/Select/f_acc:0\0223gradients/rnn/while/Select_2_grad/Select/RefEnter:0\022\351\001\nqgradients/rnn/while/rnn/multi_rnn_cell/cell_1/cell_1/lstm_cell/lstm_cell/mul_1_grad/BroadcastGradientArgs/f_acc:0\022tgradients/rnn/while/rnn/multi_rnn_cell/cell_1/cell_1/lstm_cell/lstm_cell/mul_1_grad/BroadcastGradientArgs/RefEnter:0\022\355\001\nsgradients/rnn/while/rnn/multi_rnn_cell/cell_1/cell_1/lstm_cell/lstm_cell/mul_3_grad/BroadcastGradientArgs/f_acc_1:0\022vgradients/rnn/while/rnn/multi_rnn_cell/cell_1/cell_1/lstm_cell/lstm_cell/mul_3_grad/BroadcastGradientArgs/RefEnter_1:0\022\355\001\nsgradients/rnn/while/rnn/multi_rnn_cell/cell_2/cell_2/lstm_cell/lstm_cell/mul_1_grad/BroadcastGradientArgs/f_acc_1:0\022vgradients/rnn/while/rnn/multi_rnn_cell/cell_2/cell_2/lstm_cell/lstm_cell/mul_1_grad/BroadcastGradientArgs/RefEnter_1:0\022\351\001\nqgradients/rnn/while/rnn/multi_rnn_cell/cell_2/cell_2/lstm_cell/lstm_cell/add_1_grad/BroadcastGradientArgs/f_acc:0\022tgradients/rnn/while/rnn/multi_rnn_cell/cell_2/cell_2/lstm_cell/lstm_cell/add_1_grad/BroadcastGradientArgs/RefEnter:0\022\355\001\nsgradients/rnn/while/rnn/multi_rnn_cell/cell_0/cell_0/lstm_cell/lstm_cell/add_4_grad/BroadcastGradientArgs/f_acc_1:0\022vgradients/rnn/while/rnn/multi_rnn_cell/cell_0/cell_0/lstm_cell/lstm_cell/add_4_grad/BroadcastGradientArgs/RefEnter_1:0\022\351\001\nqgradients/rnn/while/rnn/multi_rnn_cell/cell_0/cell_0/lstm_cell/lstm_cell/add_3_grad/BroadcastGradientArgs/f_acc:0\022tgradients/rnn/while/rnn/multi_rnn_cell/cell_0/cell_0/lstm_cell/lstm_cell/add_3_grad/BroadcastGradientArgs/RefEnter:0\022\'\n\013rnn/zeros:0\022\030rnn/while/Select/Enter:0\022\345\001\nogradients/rnn/while/rnn/multi_rnn_cell/cell_1/cell_1/lstm_cell/lstm_cell/add_grad/BroadcastGradientArgs/f_acc:0\022rgradients/rnn/while/rnn/multi_rnn_cell/cell_1/cell_1/lstm_cell/lstm_cell/add_grad/BroadcastGradientArgs/RefEnter:0\022\305\001\n_gradients/rnn/while/rnn/multi_rnn_cell/cell_0/cell_0/lstm_cell/lstm_cell/mul_3_grad/mul/f_acc:0\022bgradients/rnn/while/rnn/multi_rnn_cell/cell_0/cell_0/lstm_cell/lstm_cell/mul_3_grad/mul/RefEnter:0\022\351\001\nqgradients/rnn/while/rnn/multi_rnn_cell/cell_0/cell_0/lstm_cell/lstm_cell/mul_4_grad/BroadcastGradientArgs/f_acc:0\022tgradients/rnn/while/rnn/multi_rnn_cell/cell_0/cell_0/lstm_cell/lstm_cell/mul_4_grad/BroadcastGradientArgs/RefEnter:0\022o\n4gradients/rnn/while/Select_1_grad/zeros_like/f_acc:0\0227gradients/rnn/while/Select_1_grad/zeros_like/RefEnter:0\022\351\001\nqgradients/rnn/while/rnn/multi_rnn_cell/cell_0/cell_0/lstm_cell/lstm_cell/add_4_grad/BroadcastGradientArgs/f_acc:0\022tgradients/rnn/while/rnn/multi_rnn_cell/cell_0/cell_0/lstm_cell/lstm_cell/add_4_grad/BroadcastGradientArgs/RefEnter:0\022\355\001\nsgradients/rnn/while/rnn/multi_rnn_cell/cell_2/cell_2/lstm_cell/lstm_cell/add_1_grad/BroadcastGradientArgs/f_acc_1:0\022vgradients/rnn/while/rnn/multi_rnn_cell/cell_2/cell_2/lstm_cell/lstm_cell/add_1_grad/BroadcastGradientArgs/RefEnter_1:0\022g\n0gradients/rnn/while/Select_3_grad/Select/f_acc:0\0223gradients/rnn/while/Select_3_grad/Select/RefEnter:0\022\351\001\nqgradients/rnn/while/rnn/multi_rnn_cell/cell_1/cell_1/lstm_cell/lstm_cell/add_3_grad/BroadcastGradientArgs/f_acc:0\022tgradients/rnn/while/rnn/multi_rnn_cell/cell_1/cell_1/lstm_cell/lstm_cell/add_3_grad/BroadcastGradientArgs/RefEnter:0\022\311\001\nagradients/rnn/while/rnn/multi_rnn_cell/cell_2/cell_2/lstm_cell/lstm_cell/mul_5_grad/mul_1/f_acc:0\022dgradients/rnn/while/rnn/multi_rnn_cell/cell_2/cell_2/lstm_cell/lstm_cell/mul_5_grad/mul_1/RefEnter:0\022\203\001\n3rnn/multi_rnn_cell/cell_2/lstm_cell/w_i_diag/read:0\022Lrnn/while/rnn/multi_rnn_cell/cell_2/cell_2/lstm_cell/lstm_cell/mul_2/Enter:0\022\355\001\nsgradients/rnn/while/rnn/multi_rnn_cell/cell_2/cell_2/lstm_cell/lstm_cell/add_2_grad/BroadcastGradientArgs/f_acc_1:0\022vgradients/rnn/while/rnn/multi_rnn_cell/cell_2/cell_2/lstm_cell/lstm_cell/add_2_grad/BroadcastGradientArgs/RefEnter_1:0\022\313\001\nbgradients/rnn/while/rnn/multi_rnn_cell/cell_2/cell_2/lstm_cell/lstm_cell/split_grad/concat/f_acc:0\022egradients/rnn/while/rnn/multi_rnn_cell/cell_2/cell_2/lstm_cell/lstm_cell/split_grad/concat/RefEnter:0\022\311\001\nagradients/rnn/while/rnn/multi_rnn_cell/cell_2/cell_2/lstm_cell/lstm_cell/mul_1_grad/mul_1/f_acc:0\022dgradients/rnn/while/rnn/multi_rnn_cell/cell_2/cell_2/lstm_cell/lstm_cell/mul_1_grad/mul_1/RefEnter:0\022\313\001\nbgradients/rnn/while/rnn/multi_rnn_cell/cell_0/cell_0/lstm_cell/lstm_cell/split_grad/concat/f_acc:0\022egradients/rnn/while/rnn/multi_rnn_cell/cell_0/cell_0/lstm_cell/lstm_cell/split_grad/concat/RefEnter:0\022\355\001\nsgradients/rnn/while/rnn/multi_rnn_cell/cell_1/cell_1/lstm_cell/lstm_cell/add_3_grad/BroadcastGradientArgs/f_acc_1:0\022vgradients/rnn/while/rnn/multi_rnn_cell/cell_1/cell_1/lstm_cell/lstm_cell/add_3_grad/BroadcastGradientArgs/RefEnter_1:0\022\201\001\n3rnn/multi_rnn_cell/cell_0/lstm_cell/w_f_diag/read:0\022Jrnn/while/rnn/multi_rnn_cell/cell_0/cell_0/lstm_cell/lstm_cell/mul/Enter:0\022\355\001\nsgradients/rnn/while/rnn/multi_rnn_cell/cell_0/cell_0/lstm_cell/lstm_cell/add_1_grad/BroadcastGradientArgs/f_acc_1:0\022vgradients/rnn/while/rnn/multi_rnn_cell/cell_0/cell_0/lstm_cell/lstm_cell/add_1_grad/BroadcastGradientArgs/RefEnter_1:0\022\351\001\nqgradients/rnn/while/rnn/multi_rnn_cell/cell_0/cell_0/lstm_cell/lstm_cell/mul_2_grad/BroadcastGradientArgs/f_acc:0\022tgradients/rnn/while/rnn/multi_rnn_cell/cell_0/cell_0/lstm_cell/lstm_cell/mul_2_grad/BroadcastGradientArgs/RefEnter:0\022\355\001\nsgradients/rnn/while/rnn/multi_rnn_cell/cell_1/cell_1/lstm_cell/lstm_cell/mul_1_grad/BroadcastGradientArgs/f_acc_1:0\022vgradients/rnn/while/rnn/multi_rnn_cell/cell_1/cell_1/lstm_cell/lstm_cell/mul_1_grad/BroadcastGradientArgs/RefEnter_1:0\022\351\001\nqgradients/rnn/while/rnn/multi_rnn_cell/cell_1/cell_1/lstm_cell/lstm_cell/mul_2_grad/BroadcastGradientArgs/f_acc:0\022tgradients/rnn/while/rnn/multi_rnn_cell/cell_1/cell_1/lstm_cell/lstm_cell/mul_2_grad/BroadcastGradientArgs/RefEnter:0\022\351\001\nqgradients/rnn/while/rnn/multi_rnn_cell/cell_2/cell_2/lstm_cell/lstm_cell/add_3_grad/BroadcastGradientArgs/f_acc:0\022tgradients/rnn/while/rnn/multi_rnn_cell/cell_2/cell_2/lstm_cell/lstm_cell/add_3_grad/BroadcastGradientArgs/RefEnter:0\022\214\001\n1rnn/multi_rnn_cell/cell_1/lstm_cell/kernel/read:0\022Wrnn/while/rnn/multi_rnn_cell/cell_1/cell_1/lstm_cell/lstm_cell/lstm_cell/MatMul/Enter:0\022\355\001\nsgradients/rnn/while/rnn/multi_rnn_cell/cell_1/cell_1/lstm_cell/lstm_cell/add_2_grad/BroadcastGradientArgs/f_acc_1:0\022vgradients/rnn/while/rnn/multi_rnn_cell/cell_1/cell_1/lstm_cell/lstm_cell/add_2_grad/BroadcastGradientArgs/RefEnter_1:0\022\345\001\nogradients/rnn/while/rnn/multi_rnn_cell/cell_1/cell_1/lstm_cell/lstm_cell/mul_grad/BroadcastGradientArgs/f_acc:0\022rgradients/rnn/while/rnn/multi_rnn_cell/cell_1/cell_1/lstm_cell/lstm_cell/mul_grad/BroadcastGradientArgs/RefEnter:0\022\311\001\nagradients/rnn/while/rnn/multi_rnn_cell/cell_0/cell_0/lstm_cell/lstm_cell/mul_3_grad/mul_1/f_acc:0\022dgradients/rnn/while/rnn/multi_rnn_cell/cell_0/cell_0/lstm_cell/lstm_cell/mul_3_grad/mul_1/RefEnter:0\022\305\001\n_gradients/rnn/while/rnn/multi_rnn_cell/cell_0/cell_0/lstm_cell/lstm_cell/mul_5_grad/mul/f_acc:0\022bgradients/rnn/while/rnn/multi_rnn_cell/cell_0/cell_0/lstm_cell/lstm_cell/mul_5_grad/mul/RefEnter:0\022\341\001\nmgradients/rnn/while/rnn/multi_rnn_cell/cell_2/cell_2/lstm_cell/lstm_cell/lstm_cell/concat_grad/ShapeN/f_acc:0\022pgradients/rnn/while/rnn/multi_rnn_cell/cell_2/cell_2/lstm_cell/lstm_cell/lstm_cell/concat_grad/ShapeN/RefEnter:0\022\355\001\nsgradients/rnn/while/rnn/multi_rnn_cell/cell_2/cell_2/lstm_cell/lstm_cell/mul_5_grad/BroadcastGradientArgs/f_acc_1:0\022vgradients/rnn/while/rnn/multi_rnn_cell/cell_2/cell_2/lstm_cell/lstm_cell/mul_5_grad/BroadcastGradientArgs/RefEnter_1:0\022\351\001\nqgradients/rnn/while/rnn/multi_rnn_cell/cell_2/cell_2/lstm_cell/lstm_cell/mul_3_grad/BroadcastGradientArgs/f_acc:0\022tgradients/rnn/while/rnn/multi_rnn_cell/cell_2/cell_2/lstm_cell/lstm_cell/mul_3_grad/BroadcastGradientArgs/RefEnter:0\022\263\001\nVgradients/rnn/while/TensorArrayWrite/TensorArrayWriteV3_grad/TensorArrayReadV3/f_acc:0\022Ygradients/rnn/while/TensorArrayWrite/TensorArrayWriteV3_grad/TensorArrayReadV3/RefEnter:0\022\351\001\nqgradients/rnn/while/rnn/multi_rnn_cell/cell_2/cell_2/lstm_cell/lstm_cell/mul_1_grad/BroadcastGradientArgs/f_acc:0\022tgradients/rnn/while/rnn/multi_rnn_cell/cell_2/cell_2/lstm_cell/lstm_cell/mul_1_grad/BroadcastGradientArgs/RefEnter:0\022\351\001\nqgradients/rnn/while/rnn/multi_rnn_cell/cell_0/cell_0/lstm_cell/lstm_cell/add_2_grad/BroadcastGradientArgs/f_acc:0\022tgradients/rnn/while/rnn/multi_rnn_cell/cell_0/cell_0/lstm_cell/lstm_cell/add_2_grad/BroadcastGradientArgs/RefEnter:0\022\311\001\nagradients/rnn/while/rnn/multi_rnn_cell/cell_0/cell_0/lstm_cell/lstm_cell/mul_5_grad/mul_1/f_acc:0\022dgradients/rnn/while/rnn/multi_rnn_cell/cell_0/cell_0/lstm_cell/lstm_cell/mul_5_grad/mul_1/RefEnter:0\022o\n4gradients/rnn/while/Select_6_grad/zeros_like/f_acc:0\0227gradients/rnn/while/Select_6_grad/zeros_like/RefEnter:0\022\311\001\nagradients/rnn/while/rnn/multi_rnn_cell/cell_1/cell_1/lstm_cell/lstm_cell/mul_1_grad/mul_1/f_acc:0\022dgradients/rnn/while/rnn/multi_rnn_cell/cell_1/cell_1/lstm_cell/lstm_cell/mul_1_grad/mul_1/RefEnter:0\022\351\001\nqgradients/rnn/while/rnn/multi_rnn_cell/cell_0/cell_0/lstm_cell/lstm_cell/mul_1_grad/BroadcastGradientArgs/f_acc:0\022tgradients/rnn/while/rnn/multi_rnn_cell/cell_0/cell_0/lstm_cell/lstm_cell/mul_1_grad/BroadcastGradientArgs/RefEnter:0\022\213\001\n/rnn/multi_rnn_cell/cell_2/lstm_cell/bias/read:0\022Xrnn/while/rnn/multi_rnn_cell/cell_2/cell_2/lstm_cell/lstm_cell/lstm_cell/BiasAdd/Enter:0\022\355\001\nsgradients/rnn/while/rnn/multi_rnn_cell/cell_1/cell_1/lstm_cell/lstm_cell/add_1_grad/BroadcastGradientArgs/f_acc_1:0\022vgradients/rnn/while/rnn/multi_rnn_cell/cell_1/cell_1/lstm_cell/lstm_cell/add_1_grad/BroadcastGradientArgs/RefEnter_1:0\022\351\001\nqgradients/rnn/while/rnn/multi_rnn_cell/cell_1/cell_1/lstm_cell/lstm_cell/add_1_grad/BroadcastGradientArgs/f_acc:0\022tgradients/rnn/while/rnn/multi_rnn_cell/cell_1/cell_1/lstm_cell/lstm_cell/add_1_grad/BroadcastGradientArgs/RefEnter:0\022\355\001\nsgradients/rnn/while/rnn/multi_rnn_cell/cell_2/cell_2/lstm_cell/lstm_cell/add_3_grad/BroadcastGradientArgs/f_acc_1:0\022vgradients/rnn/while/rnn/multi_rnn_cell/cell_2/cell_2/lstm_cell/lstm_cell/add_3_grad/BroadcastGradientArgs/RefEnter_1:0\0223\n\021rnn/CheckSeqLen:0\022\036rnn/while/GreaterEqual/Enter:0\022:\n\023rnn/TensorArray_1:0\022#rnn/while/TensorArrayReadV3/Enter:0\022\351\001\nqgradients/rnn/while/rnn/multi_rnn_cell/cell_1/cell_1/lstm_cell/lstm_cell/add_4_grad/BroadcastGradientArgs/f_acc:0\022tgradients/rnn/while/rnn/multi_rnn_cell/cell_1/cell_1/lstm_cell/lstm_cell/add_4_grad/BroadcastGradientArgs/RefEnter:0\022\341\001\nmgradients/rnn/while/rnn/multi_rnn_cell/cell_0/cell_0/lstm_cell/lstm_cell/lstm_cell/concat_grad/ShapeN/f_acc:0\022pgradients/rnn/while/rnn/multi_rnn_cell/cell_0/cell_0/lstm_cell/lstm_cell/lstm_cell/concat_grad/ShapeN/RefEnter:0\022\214\001\n1rnn/multi_rnn_cell/cell_0/lstm_cell/kernel/read:0\022Wrnn/while/rnn/multi_rnn_cell/cell_0/cell_0/lstm_cell/lstm_cell/lstm_cell/MatMul/Enter:0\022i\n@rnn/TensorArrayUnstack/TensorArrayScatter/TensorArrayScatterV3:0\022%rnn/while/TensorArrayReadV3/Enter_1:0\022\313\001\nbgradients/rnn/while/rnn/multi_rnn_cell/cell_1/cell_1/lstm_cell/lstm_cell/split_grad/concat/f_acc:0\022egradients/rnn/while/rnn/multi_rnn_cell/cell_1/cell_1/lstm_cell/lstm_cell/split_grad/concat/RefEnter:0\022\305\001\n_gradients/rnn/while/rnn/multi_rnn_cell/cell_2/cell_2/lstm_cell/lstm_cell/mul_3_grad/mul/f_acc:0\022bgradients/rnn/while/rnn/multi_rnn_cell/cell_2/cell_2/lstm_cell/lstm_cell/mul_3_grad/mul/RefEnter:0\022\311\001\nagradients/rnn/while/rnn/multi_rnn_cell/cell_1/cell_1/lstm_cell/lstm_cell/mul_3_grad/mul_1/f_acc:0\022dgradients/rnn/while/rnn/multi_rnn_cell/cell_1/cell_1/lstm_cell/lstm_cell/mul_3_grad/mul_1/RefEnter:0\022\203\001\n3rnn/multi_rnn_cell/cell_2/lstm_cell/w_o_diag/read:0\022Lrnn/while/rnn/multi_rnn_cell/cell_2/cell_2/lstm_cell/lstm_cell/mul_4/Enter:0\022\333\001\njgradients/rnn/while/rnn/multi_rnn_cell/cell_2/cell_2/lstm_cell/lstm_cell/lstm_cell/concat_grad/mod/f_acc:0\022mgradients/rnn/while/rnn/multi_rnn_cell/cell_2/cell_2/lstm_cell/lstm_cell/lstm_cell/concat_grad/mod/RefEnter:0\022\351\001\nqgradients/rnn/while/rnn/multi_rnn_cell/cell_1/cell_1/lstm_cell/lstm_cell/mul_3_grad/BroadcastGradientArgs/f_acc:0\022tgradients/rnn/while/rnn/multi_rnn_cell/cell_1/cell_1/lstm_cell/lstm_cell/mul_3_grad/BroadcastGradientArgs/RefEnter:0\022\351\001\nqgradients/rnn/while/rnn/multi_rnn_cell/cell_1/cell_1/lstm_cell/lstm_cell/mul_4_grad/BroadcastGradientArgs/f_acc:0\022tgradients/rnn/while/rnn/multi_rnn_cell/cell_1/cell_1/lstm_cell/lstm_cell/mul_4_grad/BroadcastGradientArgs/RefEnter:0\022\305\001\n_gradients/rnn/while/rnn/multi_rnn_cell/cell_2/cell_2/lstm_cell/lstm_cell/mul_4_grad/mul/f_acc:0\022bgradients/rnn/while/rnn/multi_rnn_cell/cell_2/cell_2/lstm_cell/lstm_cell/mul_4_grad/mul/RefEnter:0\022\351\001\nqgradients/rnn/while/rnn/multi_rnn_cell/cell_0/cell_0/lstm_cell/lstm_cell/mul_5_grad/BroadcastGradientArgs/f_acc:0\022tgradients/rnn/while/rnn/multi_rnn_cell/cell_0/cell_0/lstm_cell/lstm_cell/mul_5_grad/BroadcastGradientArgs/RefEnter:0\022\213\001\n/rnn/multi_rnn_cell/cell_0/lstm_cell/bias/read:0\022Xrnn/while/rnn/multi_rnn_cell/cell_0/cell_0/lstm_cell/lstm_cell/lstm_cell/BiasAdd/Enter:0\022o\n4gradients/rnn/while/Select_5_grad/zeros_like/f_acc:0\0227gradients/rnn/while/Select_5_grad/zeros_like/RefEnter:0\022\355\001\nsgradients/rnn/while/rnn/multi_rnn_cell/cell_0/cell_0/lstm_cell/lstm_cell/add_2_grad/BroadcastGradientArgs/f_acc_1:0\022vgradients/rnn/while/rnn/multi_rnn_cell/cell_0/cell_0/lstm_cell/lstm_cell/add_2_grad/BroadcastGradientArgs/RefEnter_1:0\022g\n0gradients/rnn/while/Select_1_grad/Select/f_acc:0\0223gradients/rnn/while/Select_1_grad/Select/RefEnter:0\022\305\001\n_gradients/rnn/while/rnn/multi_rnn_cell/cell_0/cell_0/lstm_cell/lstm_cell/mul_4_grad/mul/f_acc:0\022bgradients/rnn/while/rnn/multi_rnn_cell/cell_0/cell_0/lstm_cell/lstm_cell/mul_4_grad/mul/RefEnter:0\022\203\001\n3rnn/multi_rnn_cell/cell_0/lstm_cell/w_i_diag/read:0\022Lrnn/while/rnn/multi_rnn_cell/cell_0/cell_0/lstm_cell/lstm_cell/mul_2/Enter:0\022\351\001\nqgradients/rnn/while/rnn/multi_rnn_cell/cell_2/cell_2/lstm_cell/lstm_cell/add_4_grad/BroadcastGradientArgs/f_acc:0\022tgradients/rnn/while/rnn/multi_rnn_cell/cell_2/cell_2/lstm_cell/lstm_cell/add_4_grad/BroadcastGradientArgs/RefEnter:0\022o\n4gradients/rnn/while/Select_3_grad/zeros_like/f_acc:0\0227gradients/rnn/while/Select_3_grad/zeros_like/RefEnter:0\022\355\001\nsgradients/rnn/while/rnn/multi_rnn_cell/cell_2/cell_2/lstm_cell/lstm_cell/mul_3_grad/BroadcastGradientArgs/f_acc_1:0\022vgradients/rnn/while/rnn/multi_rnn_cell/cell_2/cell_2/lstm_cell/lstm_cell/mul_3_grad/BroadcastGradientArgs/RefEnter_1:0\022\351\001\nqgradients/rnn/while/rnn/multi_rnn_cell/cell_2/cell_2/lstm_cell/lstm_cell/mul_2_grad/BroadcastGradientArgs/f_acc:0\022tgradients/rnn/while/rnn/multi_rnn_cell/cell_2/cell_2/lstm_cell/lstm_cell/mul_2_grad/BroadcastGradientArgs/RefEnter:0\022\203\001\n3rnn/multi_rnn_cell/cell_1/lstm_cell/w_i_diag/read:0\022Lrnn/while/rnn/multi_rnn_cell/cell_1/cell_1/lstm_cell/lstm_cell/mul_2/Enter:0\022\345\001\nogradients/rnn/while/rnn/multi_rnn_cell/cell_1/cell_1/lstm_cell/lstm_cell/lstm_cell/MatMul_grad/MatMul_1/f_acc:0\022rgradients/rnn/while/rnn/multi_rnn_cell/cell_1/cell_1/lstm_cell/lstm_cell/lstm_cell/MatMul_grad/MatMul_1/RefEnter:0\022\355\001\nsgradients/rnn/while/rnn/multi_rnn_cell/cell_0/cell_0/lstm_cell/lstm_cell/mul_5_grad/BroadcastGradientArgs/f_acc_1:0\022vgradients/rnn/while/rnn/multi_rnn_cell/cell_0/cell_0/lstm_cell/lstm_cell/mul_5_grad/BroadcastGradientArgs/RefEnter_1:0\022\311\001\nagradients/rnn/while/rnn/multi_rnn_cell/cell_2/cell_2/lstm_cell/lstm_cell/mul_3_grad/mul_1/f_acc:0\022dgradients/rnn/while/rnn/multi_rnn_cell/cell_2/cell_2/lstm_cell/lstm_cell/mul_3_grad/mul_1/RefEnter:0\022\201\001\n3rnn/multi_rnn_cell/cell_1/lstm_cell/w_f_diag/read:0\022Jrnn/while/rnn/multi_rnn_cell/cell_1/cell_1/lstm_cell/lstm_cell/mul/Enter:0\022\203\001\n3rnn/multi_rnn_cell/cell_0/lstm_cell/w_o_diag/read:0\022Lrnn/while/rnn/multi_rnn_cell/cell_0/cell_0/lstm_cell/lstm_cell/mul_4/Enter:0\022\333\001\njgradients/rnn/while/rnn/multi_rnn_cell/cell_0/cell_0/lstm_cell/lstm_cell/lstm_cell/concat_grad/mod/f_acc:0\022mgradients/rnn/while/rnn/multi_rnn_cell/cell_0/cell_0/lstm_cell/lstm_cell/lstm_cell/concat_grad/mod/RefEnter:0\022c\n.gradients/rnn/while/Select_grad/Select/f_acc:0\0221gradients/rnn/while/Select_grad/Select/RefEnter:0R\021rnn/while/Enter:0R\023rnn/while/Enter_1:0R\023rnn/while/Enter_2:0R\023rnn/while/Enter_3:0R\023rnn/while/Enter_4:0R\023rnn/while/Enter_5:0R\023rnn/while/Enter_6:0R\023rnn/while/Enter_7:0R\025gradients/f_count_1:0"
      }
    }
  }
}
